node {
  name: "input"
  op: "Placeholder"
  attr {
    key: "dtype"
    value {
      type: DT_FLOAT
    }
  }
  attr {
    key: "shape"
    value {
      shape {
        dim {
          size: -1
        }
        dim {
          size: 224
        }
        dim {
          size: 224
        }
        dim {
          size: 3
        }
      }
    }
  }
}
node {
  name: "MobilenetV2/input"
  op: "Identity"
  input: "input"
  attr {
    key: "T"
    value {
      type: DT_FLOAT
    }
  }
}
node {
  name: "MobilenetV2/Conv/weights/Initializer/random_uniform/shape"
  op: "Const"
  attr {
    key: "_class"
    value {
      list {
        s: "loc:@MobilenetV2/Conv/weights"
      }
    }
  }
  attr {
    key: "dtype"
    value {
      type: DT_INT32
    }
  }
  attr {
    key: "value"
    value {
      tensor {
        dtype: DT_INT32
        tensor_shape {
          dim {
            size: 4
          }
        }
        tensor_content: "\003\000\000\000\003\000\000\000\003\000\000\000 \000\000\000"
      }
    }
  }
}
node {
  name: "MobilenetV2/Conv/weights/Initializer/random_uniform/min"
  op: "Const"
  attr {
    key: "_class"
    value {
      list {
        s: "loc:@MobilenetV2/Conv/weights"
      }
    }
  }
  attr {
    key: "dtype"
    value {
      type: DT_FLOAT
    }
  }
  attr {
    key: "value"
    value {
      tensor {
        dtype: DT_FLOAT
        tensor_shape {
        }
        float_val: -0.138013109565
      }
    }
  }
}
node {
  name: "MobilenetV2/Conv/weights/Initializer/random_uniform/max"
  op: "Const"
  attr {
    key: "_class"
    value {
      list {
        s: "loc:@MobilenetV2/Conv/weights"
      }
    }
  }
  attr {
    key: "dtype"
    value {
      type: DT_FLOAT
    }
  }
  attr {
    key: "value"
    value {
      tensor {
        dtype: DT_FLOAT
        tensor_shape {
        }
        float_val: 0.138013109565
      }
    }
  }
}
node {
  name: "MobilenetV2/Conv/weights/Initializer/random_uniform/RandomUniform"
  op: "RandomUniform"
  input: "MobilenetV2/Conv/weights/Initializer/random_uniform/shape"
  attr {
    key: "T"
    value {
      type: DT_INT32
    }
  }
  attr {
    key: "_class"
    value {
      list {
        s: "loc:@MobilenetV2/Conv/weights"
      }
    }
  }
  attr {
    key: "dtype"
    value {
      type: DT_FLOAT
    }
  }
  attr {
    key: "seed"
    value {
      i: 0
    }
  }
  attr {
    key: "seed2"
    value {
      i: 0
    }
  }
}
node {
  name: "MobilenetV2/Conv/weights/Initializer/random_uniform/sub"
  op: "Sub"
  input: "MobilenetV2/Conv/weights/Initializer/random_uniform/max"
  input: "MobilenetV2/Conv/weights/Initializer/random_uniform/min"
  attr {
    key: "T"
    value {
      type: DT_FLOAT
    }
  }
  attr {
    key: "_class"
    value {
      list {
        s: "loc:@MobilenetV2/Conv/weights"
      }
    }
  }
}
node {
  name: "MobilenetV2/Conv/weights/Initializer/random_uniform/mul"
  op: "Mul"
  input: "MobilenetV2/Conv/weights/Initializer/random_uniform/RandomUniform"
  input: "MobilenetV2/Conv/weights/Initializer/random_uniform/sub"
  attr {
    key: "T"
    value {
      type: DT_FLOAT
    }
  }
  attr {
    key: "_class"
    value {
      list {
        s: "loc:@MobilenetV2/Conv/weights"
      }
    }
  }
}
node {
  name: "MobilenetV2/Conv/weights/Initializer/random_uniform"
  op: "Add"
  input: "MobilenetV2/Conv/weights/Initializer/random_uniform/mul"
  input: "MobilenetV2/Conv/weights/Initializer/random_uniform/min"
  attr {
    key: "T"
    value {
      type: DT_FLOAT
    }
  }
  attr {
    key: "_class"
    value {
      list {
        s: "loc:@MobilenetV2/Conv/weights"
      }
    }
  }
}
node {
  name: "MobilenetV2/Conv/weights"
  op: "VariableV2"
  attr {
    key: "_class"
    value {
      list {
        s: "loc:@MobilenetV2/Conv/weights"
      }
    }
  }
  attr {
    key: "container"
    value {
      s: ""
    }
  }
  attr {
    key: "dtype"
    value {
      type: DT_FLOAT
    }
  }
  attr {
    key: "shape"
    value {
      shape {
        dim {
          size: 3
        }
        dim {
          size: 3
        }
        dim {
          size: 3
        }
        dim {
          size: 32
        }
      }
    }
  }
  attr {
    key: "shared_name"
    value {
      s: ""
    }
  }
}
node {
  name: "MobilenetV2/Conv/weights/Assign"
  op: "Assign"
  input: "MobilenetV2/Conv/weights"
  input: "MobilenetV2/Conv/weights/Initializer/random_uniform"
  attr {
    key: "T"
    value {
      type: DT_FLOAT
    }
  }
  attr {
    key: "_class"
    value {
      list {
        s: "loc:@MobilenetV2/Conv/weights"
      }
    }
  }
  attr {
    key: "use_locking"
    value {
      b: true
    }
  }
  attr {
    key: "validate_shape"
    value {
      b: true
    }
  }
}
node {
  name: "MobilenetV2/Conv/weights/read"
  op: "Identity"
  input: "MobilenetV2/Conv/weights"
  attr {
    key: "T"
    value {
      type: DT_FLOAT
    }
  }
  attr {
    key: "_class"
    value {
      list {
        s: "loc:@MobilenetV2/Conv/weights"
      }
    }
  }
}
node {
  name: "MobilenetV2/Conv/dilation_rate"
  op: "Const"
  attr {
    key: "dtype"
    value {
      type: DT_INT32
    }
  }
  attr {
    key: "value"
    value {
      tensor {
        dtype: DT_INT32
        tensor_shape {
          dim {
            size: 2
          }
        }
        tensor_content: "\001\000\000\000\001\000\000\000"
      }
    }
  }
}
node {
  name: "MobilenetV2/Conv/Conv2D"
  op: "Conv2D"
  input: "MobilenetV2/input"
  input: "MobilenetV2/Conv/weights/read"
  attr {
    key: "T"
    value {
      type: DT_FLOAT
    }
  }
  attr {
    key: "data_format"
    value {
      s: "NHWC"
    }
  }
  attr {
    key: "dilations"
    value {
      list {
        i: 1
        i: 1
        i: 1
        i: 1
      }
    }
  }
  attr {
    key: "padding"
    value {
      s: "SAME"
    }
  }
  attr {
    key: "strides"
    value {
      list {
        i: 1
        i: 2
        i: 2
        i: 1
      }
    }
  }
  attr {
    key: "use_cudnn_on_gpu"
    value {
      b: true
    }
  }
}
node {
  name: "MobilenetV2/Conv/BatchNorm/gamma/Initializer/ones/shape_as_tensor"
  op: "Const"
  attr {
    key: "_class"
    value {
      list {
        s: "loc:@MobilenetV2/Conv/BatchNorm/gamma"
      }
    }
  }
  attr {
    key: "dtype"
    value {
      type: DT_INT32
    }
  }
  attr {
    key: "value"
    value {
      tensor {
        dtype: DT_INT32
        tensor_shape {
          dim {
            size: 1
          }
        }
        int_val: 32
      }
    }
  }
}
node {
  name: "MobilenetV2/Conv/BatchNorm/gamma/Initializer/ones/Const"
  op: "Const"
  attr {
    key: "_class"
    value {
      list {
        s: "loc:@MobilenetV2/Conv/BatchNorm/gamma"
      }
    }
  }
  attr {
    key: "dtype"
    value {
      type: DT_FLOAT
    }
  }
  attr {
    key: "value"
    value {
      tensor {
        dtype: DT_FLOAT
        tensor_shape {
        }
        float_val: 1.0
      }
    }
  }
}
node {
  name: "MobilenetV2/Conv/BatchNorm/gamma/Initializer/ones"
  op: "Fill"
  input: "MobilenetV2/Conv/BatchNorm/gamma/Initializer/ones/shape_as_tensor"
  input: "MobilenetV2/Conv/BatchNorm/gamma/Initializer/ones/Const"
  attr {
    key: "T"
    value {
      type: DT_FLOAT
    }
  }
  attr {
    key: "_class"
    value {
      list {
        s: "loc:@MobilenetV2/Conv/BatchNorm/gamma"
      }
    }
  }
  attr {
    key: "index_type"
    value {
      type: DT_INT32
    }
  }
}
node {
  name: "MobilenetV2/Conv/BatchNorm/gamma"
  op: "VariableV2"
  attr {
    key: "_class"
    value {
      list {
        s: "loc:@MobilenetV2/Conv/BatchNorm/gamma"
      }
    }
  }
  attr {
    key: "container"
    value {
      s: ""
    }
  }
  attr {
    key: "dtype"
    value {
      type: DT_FLOAT
    }
  }
  attr {
    key: "shape"
    value {
      shape {
        dim {
          size: 32
        }
      }
    }
  }
  attr {
    key: "shared_name"
    value {
      s: ""
    }
  }
}
node {
  name: "MobilenetV2/Conv/BatchNorm/gamma/Assign"
  op: "Assign"
  input: "MobilenetV2/Conv/BatchNorm/gamma"
  input: "MobilenetV2/Conv/BatchNorm/gamma/Initializer/ones"
  attr {
    key: "T"
    value {
      type: DT_FLOAT
    }
  }
  attr {
    key: "_class"
    value {
      list {
        s: "loc:@MobilenetV2/Conv/BatchNorm/gamma"
      }
    }
  }
  attr {
    key: "use_locking"
    value {
      b: true
    }
  }
  attr {
    key: "validate_shape"
    value {
      b: true
    }
  }
}
node {
  name: "MobilenetV2/Conv/BatchNorm/gamma/read"
  op: "Identity"
  input: "MobilenetV2/Conv/BatchNorm/gamma"
  attr {
    key: "T"
    value {
      type: DT_FLOAT
    }
  }
  attr {
    key: "_class"
    value {
      list {
        s: "loc:@MobilenetV2/Conv/BatchNorm/gamma"
      }
    }
  }
}
node {
  name: "MobilenetV2/Conv/BatchNorm/beta/Initializer/zeros/shape_as_tensor"
  op: "Const"
  attr {
    key: "_class"
    value {
      list {
        s: "loc:@MobilenetV2/Conv/BatchNorm/beta"
      }
    }
  }
  attr {
    key: "dtype"
    value {
      type: DT_INT32
    }
  }
  attr {
    key: "value"
    value {
      tensor {
        dtype: DT_INT32
        tensor_shape {
          dim {
            size: 1
          }
        }
        int_val: 32
      }
    }
  }
}
node {
  name: "MobilenetV2/Conv/BatchNorm/beta/Initializer/zeros/Const"
  op: "Const"
  attr {
    key: "_class"
    value {
      list {
        s: "loc:@MobilenetV2/Conv/BatchNorm/beta"
      }
    }
  }
  attr {
    key: "dtype"
    value {
      type: DT_FLOAT
    }
  }
  attr {
    key: "value"
    value {
      tensor {
        dtype: DT_FLOAT
        tensor_shape {
        }
        float_val: 0.0
      }
    }
  }
}
node {
  name: "MobilenetV2/Conv/BatchNorm/beta/Initializer/zeros"
  op: "Fill"
  input: "MobilenetV2/Conv/BatchNorm/beta/Initializer/zeros/shape_as_tensor"
  input: "MobilenetV2/Conv/BatchNorm/beta/Initializer/zeros/Const"
  attr {
    key: "T"
    value {
      type: DT_FLOAT
    }
  }
  attr {
    key: "_class"
    value {
      list {
        s: "loc:@MobilenetV2/Conv/BatchNorm/beta"
      }
    }
  }
  attr {
    key: "index_type"
    value {
      type: DT_INT32
    }
  }
}
node {
  name: "MobilenetV2/Conv/BatchNorm/beta"
  op: "VariableV2"
  attr {
    key: "_class"
    value {
      list {
        s: "loc:@MobilenetV2/Conv/BatchNorm/beta"
      }
    }
  }
  attr {
    key: "container"
    value {
      s: ""
    }
  }
  attr {
    key: "dtype"
    value {
      type: DT_FLOAT
    }
  }
  attr {
    key: "shape"
    value {
      shape {
        dim {
          size: 32
        }
      }
    }
  }
  attr {
    key: "shared_name"
    value {
      s: ""
    }
  }
}
node {
  name: "MobilenetV2/Conv/BatchNorm/beta/Assign"
  op: "Assign"
  input: "MobilenetV2/Conv/BatchNorm/beta"
  input: "MobilenetV2/Conv/BatchNorm/beta/Initializer/zeros"
  attr {
    key: "T"
    value {
      type: DT_FLOAT
    }
  }
  attr {
    key: "_class"
    value {
      list {
        s: "loc:@MobilenetV2/Conv/BatchNorm/beta"
      }
    }
  }
  attr {
    key: "use_locking"
    value {
      b: true
    }
  }
  attr {
    key: "validate_shape"
    value {
      b: true
    }
  }
}
node {
  name: "MobilenetV2/Conv/BatchNorm/beta/read"
  op: "Identity"
  input: "MobilenetV2/Conv/BatchNorm/beta"
  attr {
    key: "T"
    value {
      type: DT_FLOAT
    }
  }
  attr {
    key: "_class"
    value {
      list {
        s: "loc:@MobilenetV2/Conv/BatchNorm/beta"
      }
    }
  }
}
node {
  name: "MobilenetV2/Conv/BatchNorm/moving_mean/Initializer/zeros/shape_as_tensor"
  op: "Const"
  attr {
    key: "_class"
    value {
      list {
        s: "loc:@MobilenetV2/Conv/BatchNorm/moving_mean"
      }
    }
  }
  attr {
    key: "dtype"
    value {
      type: DT_INT32
    }
  }
  attr {
    key: "value"
    value {
      tensor {
        dtype: DT_INT32
        tensor_shape {
          dim {
            size: 1
          }
        }
        int_val: 32
      }
    }
  }
}
node {
  name: "MobilenetV2/Conv/BatchNorm/moving_mean/Initializer/zeros/Const"
  op: "Const"
  attr {
    key: "_class"
    value {
      list {
        s: "loc:@MobilenetV2/Conv/BatchNorm/moving_mean"
      }
    }
  }
  attr {
    key: "dtype"
    value {
      type: DT_FLOAT
    }
  }
  attr {
    key: "value"
    value {
      tensor {
        dtype: DT_FLOAT
        tensor_shape {
        }
        float_val: 0.0
      }
    }
  }
}
node {
  name: "MobilenetV2/Conv/BatchNorm/moving_mean/Initializer/zeros"
  op: "Fill"
  input: "MobilenetV2/Conv/BatchNorm/moving_mean/Initializer/zeros/shape_as_tensor"
  input: "MobilenetV2/Conv/BatchNorm/moving_mean/Initializer/zeros/Const"
  attr {
    key: "T"
    value {
      type: DT_FLOAT
    }
  }
  attr {
    key: "_class"
    value {
      list {
        s: "loc:@MobilenetV2/Conv/BatchNorm/moving_mean"
      }
    }
  }
  attr {
    key: "index_type"
    value {
      type: DT_INT32
    }
  }
}
node {
  name: "MobilenetV2/Conv/BatchNorm/moving_mean"
  op: "VariableV2"
  attr {
    key: "_class"
    value {
      list {
        s: "loc:@MobilenetV2/Conv/BatchNorm/moving_mean"
      }
    }
  }
  attr {
    key: "container"
    value {
      s: ""
    }
  }
  attr {
    key: "dtype"
    value {
      type: DT_FLOAT
    }
  }
  attr {
    key: "shape"
    value {
      shape {
        dim {
          size: 32
        }
      }
    }
  }
  attr {
    key: "shared_name"
    value {
      s: ""
    }
  }
}
node {
  name: "MobilenetV2/Conv/BatchNorm/moving_mean/Assign"
  op: "Assign"
  input: "MobilenetV2/Conv/BatchNorm/moving_mean"
  input: "MobilenetV2/Conv/BatchNorm/moving_mean/Initializer/zeros"
  attr {
    key: "T"
    value {
      type: DT_FLOAT
    }
  }
  attr {
    key: "_class"
    value {
      list {
        s: "loc:@MobilenetV2/Conv/BatchNorm/moving_mean"
      }
    }
  }
  attr {
    key: "use_locking"
    value {
      b: true
    }
  }
  attr {
    key: "validate_shape"
    value {
      b: true
    }
  }
}
node {
  name: "MobilenetV2/Conv/BatchNorm/moving_mean/read"
  op: "Identity"
  input: "MobilenetV2/Conv/BatchNorm/moving_mean"
  attr {
    key: "T"
    value {
      type: DT_FLOAT
    }
  }
  attr {
    key: "_class"
    value {
      list {
        s: "loc:@MobilenetV2/Conv/BatchNorm/moving_mean"
      }
    }
  }
}
node {
  name: "MobilenetV2/Conv/BatchNorm/moving_variance/Initializer/ones/shape_as_tensor"
  op: "Const"
  attr {
    key: "_class"
    value {
      list {
        s: "loc:@MobilenetV2/Conv/BatchNorm/moving_variance"
      }
    }
  }
  attr {
    key: "dtype"
    value {
      type: DT_INT32
    }
  }
  attr {
    key: "value"
    value {
      tensor {
        dtype: DT_INT32
        tensor_shape {
          dim {
            size: 1
          }
        }
        int_val: 32
      }
    }
  }
}
node {
  name: "MobilenetV2/Conv/BatchNorm/moving_variance/Initializer/ones/Const"
  op: "Const"
  attr {
    key: "_class"
    value {
      list {
        s: "loc:@MobilenetV2/Conv/BatchNorm/moving_variance"
      }
    }
  }
  attr {
    key: "dtype"
    value {
      type: DT_FLOAT
    }
  }
  attr {
    key: "value"
    value {
      tensor {
        dtype: DT_FLOAT
        tensor_shape {
        }
        float_val: 1.0
      }
    }
  }
}
node {
  name: "MobilenetV2/Conv/BatchNorm/moving_variance/Initializer/ones"
  op: "Fill"
  input: "MobilenetV2/Conv/BatchNorm/moving_variance/Initializer/ones/shape_as_tensor"
  input: "MobilenetV2/Conv/BatchNorm/moving_variance/Initializer/ones/Const"
  attr {
    key: "T"
    value {
      type: DT_FLOAT
    }
  }
  attr {
    key: "_class"
    value {
      list {
        s: "loc:@MobilenetV2/Conv/BatchNorm/moving_variance"
      }
    }
  }
  attr {
    key: "index_type"
    value {
      type: DT_INT32
    }
  }
}
node {
  name: "MobilenetV2/Conv/BatchNorm/moving_variance"
  op: "VariableV2"
  attr {
    key: "_class"
    value {
      list {
        s: "loc:@MobilenetV2/Conv/BatchNorm/moving_variance"
      }
    }
  }
  attr {
    key: "container"
    value {
      s: ""
    }
  }
  attr {
    key: "dtype"
    value {
      type: DT_FLOAT
    }
  }
  attr {
    key: "shape"
    value {
      shape {
        dim {
          size: 32
        }
      }
    }
  }
  attr {
    key: "shared_name"
    value {
      s: ""
    }
  }
}
node {
  name: "MobilenetV2/Conv/BatchNorm/moving_variance/Assign"
  op: "Assign"
  input: "MobilenetV2/Conv/BatchNorm/moving_variance"
  input: "MobilenetV2/Conv/BatchNorm/moving_variance/Initializer/ones"
  attr {
    key: "T"
    value {
      type: DT_FLOAT
    }
  }
  attr {
    key: "_class"
    value {
      list {
        s: "loc:@MobilenetV2/Conv/BatchNorm/moving_variance"
      }
    }
  }
  attr {
    key: "use_locking"
    value {
      b: true
    }
  }
  attr {
    key: "validate_shape"
    value {
      b: true
    }
  }
}
node {
  name: "MobilenetV2/Conv/BatchNorm/moving_variance/read"
  op: "Identity"
  input: "MobilenetV2/Conv/BatchNorm/moving_variance"
  attr {
    key: "T"
    value {
      type: DT_FLOAT
    }
  }
  attr {
    key: "_class"
    value {
      list {
        s: "loc:@MobilenetV2/Conv/BatchNorm/moving_variance"
      }
    }
  }
}
node {
  name: "MobilenetV2/Conv/BatchNorm/FusedBatchNorm"
  op: "FusedBatchNorm"
  input: "MobilenetV2/Conv/Conv2D"
  input: "MobilenetV2/Conv/BatchNorm/gamma/read"
  input: "MobilenetV2/Conv/BatchNorm/beta/read"
  input: "MobilenetV2/Conv/BatchNorm/moving_mean/read"
  input: "MobilenetV2/Conv/BatchNorm/moving_variance/read"
  attr {
    key: "T"
    value {
      type: DT_FLOAT
    }
  }
  attr {
    key: "data_format"
    value {
      s: "NHWC"
    }
  }
  attr {
    key: "epsilon"
    value {
      f: 0.0010000000475
    }
  }
  attr {
    key: "is_training"
    value {
      b: false
    }
  }
}
node {
  name: "MobilenetV2/Conv/BatchNorm/Const"
  op: "Const"
  attr {
    key: "dtype"
    value {
      type: DT_FLOAT
    }
  }
  attr {
    key: "value"
    value {
      tensor {
        dtype: DT_FLOAT
        tensor_shape {
        }
        float_val: 0.999000012875
      }
    }
  }
}
node {
  name: "MobilenetV2/Conv/Relu6"
  op: "Relu6"
  input: "MobilenetV2/Conv/BatchNorm/FusedBatchNorm"
  attr {
    key: "T"
    value {
      type: DT_FLOAT
    }
  }
}
node {
  name: "MobilenetV2/expanded_conv/input"
  op: "Identity"
  input: "MobilenetV2/Conv/Relu6"
  attr {
    key: "T"
    value {
      type: DT_FLOAT
    }
  }
}
node {
  name: "MobilenetV2/expanded_conv/depthwise/depthwise_weights/Initializer/random_uniform/shape"
  op: "Const"
  attr {
    key: "_class"
    value {
      list {
        s: "loc:@MobilenetV2/expanded_conv/depthwise/depthwise_weights"
      }
    }
  }
  attr {
    key: "dtype"
    value {
      type: DT_INT32
    }
  }
  attr {
    key: "value"
    value {
      tensor {
        dtype: DT_INT32
        tensor_shape {
          dim {
            size: 4
          }
        }
        tensor_content: "\003\000\000\000\003\000\000\000 \000\000\000\001\000\000\000"
      }
    }
  }
}
node {
  name: "MobilenetV2/expanded_conv/depthwise/depthwise_weights/Initializer/random_uniform/min"
  op: "Const"
  attr {
    key: "_class"
    value {
      list {
        s: "loc:@MobilenetV2/expanded_conv/depthwise/depthwise_weights"
      }
    }
  }
  attr {
    key: "dtype"
    value {
      type: DT_FLOAT
    }
  }
  attr {
    key: "value"
    value {
      tensor {
        dtype: DT_FLOAT
        tensor_shape {
        }
        float_val: -0.142133817077
      }
    }
  }
}
node {
  name: "MobilenetV2/expanded_conv/depthwise/depthwise_weights/Initializer/random_uniform/max"
  op: "Const"
  attr {
    key: "_class"
    value {
      list {
        s: "loc:@MobilenetV2/expanded_conv/depthwise/depthwise_weights"
      }
    }
  }
  attr {
    key: "dtype"
    value {
      type: DT_FLOAT
    }
  }
  attr {
    key: "value"
    value {
      tensor {
        dtype: DT_FLOAT
        tensor_shape {
        }
        float_val: 0.142133817077
      }
    }
  }
}
node {
  name: "MobilenetV2/expanded_conv/depthwise/depthwise_weights/Initializer/random_uniform/RandomUniform"
  op: "RandomUniform"
  input: "MobilenetV2/expanded_conv/depthwise/depthwise_weights/Initializer/random_uniform/shape"
  attr {
    key: "T"
    value {
      type: DT_INT32
    }
  }
  attr {
    key: "_class"
    value {
      list {
        s: "loc:@MobilenetV2/expanded_conv/depthwise/depthwise_weights"
      }
    }
  }
  attr {
    key: "dtype"
    value {
      type: DT_FLOAT
    }
  }
  attr {
    key: "seed"
    value {
      i: 0
    }
  }
  attr {
    key: "seed2"
    value {
      i: 0
    }
  }
}
node {
  name: "MobilenetV2/expanded_conv/depthwise/depthwise_weights/Initializer/random_uniform/sub"
  op: "Sub"
  input: "MobilenetV2/expanded_conv/depthwise/depthwise_weights/Initializer/random_uniform/max"
  input: "MobilenetV2/expanded_conv/depthwise/depthwise_weights/Initializer/random_uniform/min"
  attr {
    key: "T"
    value {
      type: DT_FLOAT
    }
  }
  attr {
    key: "_class"
    value {
      list {
        s: "loc:@MobilenetV2/expanded_conv/depthwise/depthwise_weights"
      }
    }
  }
}
node {
  name: "MobilenetV2/expanded_conv/depthwise/depthwise_weights/Initializer/random_uniform/mul"
  op: "Mul"
  input: "MobilenetV2/expanded_conv/depthwise/depthwise_weights/Initializer/random_uniform/RandomUniform"
  input: "MobilenetV2/expanded_conv/depthwise/depthwise_weights/Initializer/random_uniform/sub"
  attr {
    key: "T"
    value {
      type: DT_FLOAT
    }
  }
  attr {
    key: "_class"
    value {
      list {
        s: "loc:@MobilenetV2/expanded_conv/depthwise/depthwise_weights"
      }
    }
  }
}
node {
  name: "MobilenetV2/expanded_conv/depthwise/depthwise_weights/Initializer/random_uniform"
  op: "Add"
  input: "MobilenetV2/expanded_conv/depthwise/depthwise_weights/Initializer/random_uniform/mul"
  input: "MobilenetV2/expanded_conv/depthwise/depthwise_weights/Initializer/random_uniform/min"
  attr {
    key: "T"
    value {
      type: DT_FLOAT
    }
  }
  attr {
    key: "_class"
    value {
      list {
        s: "loc:@MobilenetV2/expanded_conv/depthwise/depthwise_weights"
      }
    }
  }
}
node {
  name: "MobilenetV2/expanded_conv/depthwise/depthwise_weights"
  op: "VariableV2"
  attr {
    key: "_class"
    value {
      list {
        s: "loc:@MobilenetV2/expanded_conv/depthwise/depthwise_weights"
      }
    }
  }
  attr {
    key: "container"
    value {
      s: ""
    }
  }
  attr {
    key: "dtype"
    value {
      type: DT_FLOAT
    }
  }
  attr {
    key: "shape"
    value {
      shape {
        dim {
          size: 3
        }
        dim {
          size: 3
        }
        dim {
          size: 32
        }
        dim {
          size: 1
        }
      }
    }
  }
  attr {
    key: "shared_name"
    value {
      s: ""
    }
  }
}
node {
  name: "MobilenetV2/expanded_conv/depthwise/depthwise_weights/Assign"
  op: "Assign"
  input: "MobilenetV2/expanded_conv/depthwise/depthwise_weights"
  input: "MobilenetV2/expanded_conv/depthwise/depthwise_weights/Initializer/random_uniform"
  attr {
    key: "T"
    value {
      type: DT_FLOAT
    }
  }
  attr {
    key: "_class"
    value {
      list {
        s: "loc:@MobilenetV2/expanded_conv/depthwise/depthwise_weights"
      }
    }
  }
  attr {
    key: "use_locking"
    value {
      b: true
    }
  }
  attr {
    key: "validate_shape"
    value {
      b: true
    }
  }
}
node {
  name: "MobilenetV2/expanded_conv/depthwise/depthwise_weights/read"
  op: "Identity"
  input: "MobilenetV2/expanded_conv/depthwise/depthwise_weights"
  attr {
    key: "T"
    value {
      type: DT_FLOAT
    }
  }
  attr {
    key: "_class"
    value {
      list {
        s: "loc:@MobilenetV2/expanded_conv/depthwise/depthwise_weights"
      }
    }
  }
}
node {
  name: "MobilenetV2/expanded_conv/depthwise/depthwise/Shape"
  op: "Const"
  attr {
    key: "dtype"
    value {
      type: DT_INT32
    }
  }
  attr {
    key: "value"
    value {
      tensor {
        dtype: DT_INT32
        tensor_shape {
          dim {
            size: 4
          }
        }
        tensor_content: "\003\000\000\000\003\000\000\000 \000\000\000\001\000\000\000"
      }
    }
  }
}
node {
  name: "MobilenetV2/expanded_conv/depthwise/depthwise/dilation_rate"
  op: "Const"
  attr {
    key: "dtype"
    value {
      type: DT_INT32
    }
  }
  attr {
    key: "value"
    value {
      tensor {
        dtype: DT_INT32
        tensor_shape {
          dim {
            size: 2
          }
        }
        tensor_content: "\001\000\000\000\001\000\000\000"
      }
    }
  }
}
node {
  name: "MobilenetV2/expanded_conv/depthwise/depthwise"
  op: "DepthwiseConv2dNative"
  input: "MobilenetV2/expanded_conv/input"
  input: "MobilenetV2/expanded_conv/depthwise/depthwise_weights/read"
  attr {
    key: "T"
    value {
      type: DT_FLOAT
    }
  }
  attr {
    key: "data_format"
    value {
      s: "NHWC"
    }
  }
  attr {
    key: "dilations"
    value {
      list {
        i: 1
        i: 1
        i: 1
        i: 1
      }
    }
  }
  attr {
    key: "padding"
    value {
      s: "SAME"
    }
  }
  attr {
    key: "strides"
    value {
      list {
        i: 1
        i: 1
        i: 1
        i: 1
      }
    }
  }
}
node {
  name: "MobilenetV2/expanded_conv/depthwise/BatchNorm/gamma/Initializer/ones/shape_as_tensor"
  op: "Const"
  attr {
    key: "_class"
    value {
      list {
        s: "loc:@MobilenetV2/expanded_conv/depthwise/BatchNorm/gamma"
      }
    }
  }
  attr {
    key: "dtype"
    value {
      type: DT_INT32
    }
  }
  attr {
    key: "value"
    value {
      tensor {
        dtype: DT_INT32
        tensor_shape {
          dim {
            size: 1
          }
        }
        int_val: 32
      }
    }
  }
}
node {
  name: "MobilenetV2/expanded_conv/depthwise/BatchNorm/gamma/Initializer/ones/Const"
  op: "Const"
  attr {
    key: "_class"
    value {
      list {
        s: "loc:@MobilenetV2/expanded_conv/depthwise/BatchNorm/gamma"
      }
    }
  }
  attr {
    key: "dtype"
    value {
      type: DT_FLOAT
    }
  }
  attr {
    key: "value"
    value {
      tensor {
        dtype: DT_FLOAT
        tensor_shape {
        }
        float_val: 1.0
      }
    }
  }
}
node {
  name: "MobilenetV2/expanded_conv/depthwise/BatchNorm/gamma/Initializer/ones"
  op: "Fill"
  input: "MobilenetV2/expanded_conv/depthwise/BatchNorm/gamma/Initializer/ones/shape_as_tensor"
  input: "MobilenetV2/expanded_conv/depthwise/BatchNorm/gamma/Initializer/ones/Const"
  attr {
    key: "T"
    value {
      type: DT_FLOAT
    }
  }
  attr {
    key: "_class"
    value {
      list {
        s: "loc:@MobilenetV2/expanded_conv/depthwise/BatchNorm/gamma"
      }
    }
  }
  attr {
    key: "index_type"
    value {
      type: DT_INT32
    }
  }
}
node {
  name: "MobilenetV2/expanded_conv/depthwise/BatchNorm/gamma"
  op: "VariableV2"
  attr {
    key: "_class"
    value {
      list {
        s: "loc:@MobilenetV2/expanded_conv/depthwise/BatchNorm/gamma"
      }
    }
  }
  attr {
    key: "container"
    value {
      s: ""
    }
  }
  attr {
    key: "dtype"
    value {
      type: DT_FLOAT
    }
  }
  attr {
    key: "shape"
    value {
      shape {
        dim {
          size: 32
        }
      }
    }
  }
  attr {
    key: "shared_name"
    value {
      s: ""
    }
  }
}
node {
  name: "MobilenetV2/expanded_conv/depthwise/BatchNorm/gamma/Assign"
  op: "Assign"
  input: "MobilenetV2/expanded_conv/depthwise/BatchNorm/gamma"
  input: "MobilenetV2/expanded_conv/depthwise/BatchNorm/gamma/Initializer/ones"
  attr {
    key: "T"
    value {
      type: DT_FLOAT
    }
  }
  attr {
    key: "_class"
    value {
      list {
        s: "loc:@MobilenetV2/expanded_conv/depthwise/BatchNorm/gamma"
      }
    }
  }
  attr {
    key: "use_locking"
    value {
      b: true
    }
  }
  attr {
    key: "validate_shape"
    value {
      b: true
    }
  }
}
node {
  name: "MobilenetV2/expanded_conv/depthwise/BatchNorm/gamma/read"
  op: "Identity"
  input: "MobilenetV2/expanded_conv/depthwise/BatchNorm/gamma"
  attr {
    key: "T"
    value {
      type: DT_FLOAT
    }
  }
  attr {
    key: "_class"
    value {
      list {
        s: "loc:@MobilenetV2/expanded_conv/depthwise/BatchNorm/gamma"
      }
    }
  }
}
node {
  name: "MobilenetV2/expanded_conv/depthwise/BatchNorm/beta/Initializer/zeros/shape_as_tensor"
  op: "Const"
  attr {
    key: "_class"
    value {
      list {
        s: "loc:@MobilenetV2/expanded_conv/depthwise/BatchNorm/beta"
      }
    }
  }
  attr {
    key: "dtype"
    value {
      type: DT_INT32
    }
  }
  attr {
    key: "value"
    value {
      tensor {
        dtype: DT_INT32
        tensor_shape {
          dim {
            size: 1
          }
        }
        int_val: 32
      }
    }
  }
}
node {
  name: "MobilenetV2/expanded_conv/depthwise/BatchNorm/beta/Initializer/zeros/Const"
  op: "Const"
  attr {
    key: "_class"
    value {
      list {
        s: "loc:@MobilenetV2/expanded_conv/depthwise/BatchNorm/beta"
      }
    }
  }
  attr {
    key: "dtype"
    value {
      type: DT_FLOAT
    }
  }
  attr {
    key: "value"
    value {
      tensor {
        dtype: DT_FLOAT
        tensor_shape {
        }
        float_val: 0.0
      }
    }
  }
}
node {
  name: "MobilenetV2/expanded_conv/depthwise/BatchNorm/beta/Initializer/zeros"
  op: "Fill"
  input: "MobilenetV2/expanded_conv/depthwise/BatchNorm/beta/Initializer/zeros/shape_as_tensor"
  input: "MobilenetV2/expanded_conv/depthwise/BatchNorm/beta/Initializer/zeros/Const"
  attr {
    key: "T"
    value {
      type: DT_FLOAT
    }
  }
  attr {
    key: "_class"
    value {
      list {
        s: "loc:@MobilenetV2/expanded_conv/depthwise/BatchNorm/beta"
      }
    }
  }
  attr {
    key: "index_type"
    value {
      type: DT_INT32
    }
  }
}
node {
  name: "MobilenetV2/expanded_conv/depthwise/BatchNorm/beta"
  op: "VariableV2"
  attr {
    key: "_class"
    value {
      list {
        s: "loc:@MobilenetV2/expanded_conv/depthwise/BatchNorm/beta"
      }
    }
  }
  attr {
    key: "container"
    value {
      s: ""
    }
  }
  attr {
    key: "dtype"
    value {
      type: DT_FLOAT
    }
  }
  attr {
    key: "shape"
    value {
      shape {
        dim {
          size: 32
        }
      }
    }
  }
  attr {
    key: "shared_name"
    value {
      s: ""
    }
  }
}
node {
  name: "MobilenetV2/expanded_conv/depthwise/BatchNorm/beta/Assign"
  op: "Assign"
  input: "MobilenetV2/expanded_conv/depthwise/BatchNorm/beta"
  input: "MobilenetV2/expanded_conv/depthwise/BatchNorm/beta/Initializer/zeros"
  attr {
    key: "T"
    value {
      type: DT_FLOAT
    }
  }
  attr {
    key: "_class"
    value {
      list {
        s: "loc:@MobilenetV2/expanded_conv/depthwise/BatchNorm/beta"
      }
    }
  }
  attr {
    key: "use_locking"
    value {
      b: true
    }
  }
  attr {
    key: "validate_shape"
    value {
      b: true
    }
  }
}
node {
  name: "MobilenetV2/expanded_conv/depthwise/BatchNorm/beta/read"
  op: "Identity"
  input: "MobilenetV2/expanded_conv/depthwise/BatchNorm/beta"
  attr {
    key: "T"
    value {
      type: DT_FLOAT
    }
  }
  attr {
    key: "_class"
    value {
      list {
        s: "loc:@MobilenetV2/expanded_conv/depthwise/BatchNorm/beta"
      }
    }
  }
}
node {
  name: "MobilenetV2/expanded_conv/depthwise/BatchNorm/moving_mean/Initializer/zeros/shape_as_tensor"
  op: "Const"
  attr {
    key: "_class"
    value {
      list {
        s: "loc:@MobilenetV2/expanded_conv/depthwise/BatchNorm/moving_mean"
      }
    }
  }
  attr {
    key: "dtype"
    value {
      type: DT_INT32
    }
  }
  attr {
    key: "value"
    value {
      tensor {
        dtype: DT_INT32
        tensor_shape {
          dim {
            size: 1
          }
        }
        int_val: 32
      }
    }
  }
}
node {
  name: "MobilenetV2/expanded_conv/depthwise/BatchNorm/moving_mean/Initializer/zeros/Const"
  op: "Const"
  attr {
    key: "_class"
    value {
      list {
        s: "loc:@MobilenetV2/expanded_conv/depthwise/BatchNorm/moving_mean"
      }
    }
  }
  attr {
    key: "dtype"
    value {
      type: DT_FLOAT
    }
  }
  attr {
    key: "value"
    value {
      tensor {
        dtype: DT_FLOAT
        tensor_shape {
        }
        float_val: 0.0
      }
    }
  }
}
node {
  name: "MobilenetV2/expanded_conv/depthwise/BatchNorm/moving_mean/Initializer/zeros"
  op: "Fill"
  input: "MobilenetV2/expanded_conv/depthwise/BatchNorm/moving_mean/Initializer/zeros/shape_as_tensor"
  input: "MobilenetV2/expanded_conv/depthwise/BatchNorm/moving_mean/Initializer/zeros/Const"
  attr {
    key: "T"
    value {
      type: DT_FLOAT
    }
  }
  attr {
    key: "_class"
    value {
      list {
        s: "loc:@MobilenetV2/expanded_conv/depthwise/BatchNorm/moving_mean"
      }
    }
  }
  attr {
    key: "index_type"
    value {
      type: DT_INT32
    }
  }
}
node {
  name: "MobilenetV2/expanded_conv/depthwise/BatchNorm/moving_mean"
  op: "VariableV2"
  attr {
    key: "_class"
    value {
      list {
        s: "loc:@MobilenetV2/expanded_conv/depthwise/BatchNorm/moving_mean"
      }
    }
  }
  attr {
    key: "container"
    value {
      s: ""
    }
  }
  attr {
    key: "dtype"
    value {
      type: DT_FLOAT
    }
  }
  attr {
    key: "shape"
    value {
      shape {
        dim {
          size: 32
        }
      }
    }
  }
  attr {
    key: "shared_name"
    value {
      s: ""
    }
  }
}
node {
  name: "MobilenetV2/expanded_conv/depthwise/BatchNorm/moving_mean/Assign"
  op: "Assign"
  input: "MobilenetV2/expanded_conv/depthwise/BatchNorm/moving_mean"
  input: "MobilenetV2/expanded_conv/depthwise/BatchNorm/moving_mean/Initializer/zeros"
  attr {
    key: "T"
    value {
      type: DT_FLOAT
    }
  }
  attr {
    key: "_class"
    value {
      list {
        s: "loc:@MobilenetV2/expanded_conv/depthwise/BatchNorm/moving_mean"
      }
    }
  }
  attr {
    key: "use_locking"
    value {
      b: true
    }
  }
  attr {
    key: "validate_shape"
    value {
      b: true
    }
  }
}
node {
  name: "MobilenetV2/expanded_conv/depthwise/BatchNorm/moving_mean/read"
  op: "Identity"
  input: "MobilenetV2/expanded_conv/depthwise/BatchNorm/moving_mean"
  attr {
    key: "T"
    value {
      type: DT_FLOAT
    }
  }
  attr {
    key: "_class"
    value {
      list {
        s: "loc:@MobilenetV2/expanded_conv/depthwise/BatchNorm/moving_mean"
      }
    }
  }
}
node {
  name: "MobilenetV2/expanded_conv/depthwise/BatchNorm/moving_variance/Initializer/ones/shape_as_tensor"
  op: "Const"
  attr {
    key: "_class"
    value {
      list {
        s: "loc:@MobilenetV2/expanded_conv/depthwise/BatchNorm/moving_variance"
      }
    }
  }
  attr {
    key: "dtype"
    value {
      type: DT_INT32
    }
  }
  attr {
    key: "value"
    value {
      tensor {
        dtype: DT_INT32
        tensor_shape {
          dim {
            size: 1
          }
        }
        int_val: 32
      }
    }
  }
}
node {
  name: "MobilenetV2/expanded_conv/depthwise/BatchNorm/moving_variance/Initializer/ones/Const"
  op: "Const"
  attr {
    key: "_class"
    value {
      list {
        s: "loc:@MobilenetV2/expanded_conv/depthwise/BatchNorm/moving_variance"
      }
    }
  }
  attr {
    key: "dtype"
    value {
      type: DT_FLOAT
    }
  }
  attr {
    key: "value"
    value {
      tensor {
        dtype: DT_FLOAT
        tensor_shape {
        }
        float_val: 1.0
      }
    }
  }
}
node {
  name: "MobilenetV2/expanded_conv/depthwise/BatchNorm/moving_variance/Initializer/ones"
  op: "Fill"
  input: "MobilenetV2/expanded_conv/depthwise/BatchNorm/moving_variance/Initializer/ones/shape_as_tensor"
  input: "MobilenetV2/expanded_conv/depthwise/BatchNorm/moving_variance/Initializer/ones/Const"
  attr {
    key: "T"
    value {
      type: DT_FLOAT
    }
  }
  attr {
    key: "_class"
    value {
      list {
        s: "loc:@MobilenetV2/expanded_conv/depthwise/BatchNorm/moving_variance"
      }
    }
  }
  attr {
    key: "index_type"
    value {
      type: DT_INT32
    }
  }
}
node {
  name: "MobilenetV2/expanded_conv/depthwise/BatchNorm/moving_variance"
  op: "VariableV2"
  attr {
    key: "_class"
    value {
      list {
        s: "loc:@MobilenetV2/expanded_conv/depthwise/BatchNorm/moving_variance"
      }
    }
  }
  attr {
    key: "container"
    value {
      s: ""
    }
  }
  attr {
    key: "dtype"
    value {
      type: DT_FLOAT
    }
  }
  attr {
    key: "shape"
    value {
      shape {
        dim {
          size: 32
        }
      }
    }
  }
  attr {
    key: "shared_name"
    value {
      s: ""
    }
  }
}
node {
  name: "MobilenetV2/expanded_conv/depthwise/BatchNorm/moving_variance/Assign"
  op: "Assign"
  input: "MobilenetV2/expanded_conv/depthwise/BatchNorm/moving_variance"
  input: "MobilenetV2/expanded_conv/depthwise/BatchNorm/moving_variance/Initializer/ones"
  attr {
    key: "T"
    value {
      type: DT_FLOAT
    }
  }
  attr {
    key: "_class"
    value {
      list {
        s: "loc:@MobilenetV2/expanded_conv/depthwise/BatchNorm/moving_variance"
      }
    }
  }
  attr {
    key: "use_locking"
    value {
      b: true
    }
  }
  attr {
    key: "validate_shape"
    value {
      b: true
    }
  }
}
node {
  name: "MobilenetV2/expanded_conv/depthwise/BatchNorm/moving_variance/read"
  op: "Identity"
  input: "MobilenetV2/expanded_conv/depthwise/BatchNorm/moving_variance"
  attr {
    key: "T"
    value {
      type: DT_FLOAT
    }
  }
  attr {
    key: "_class"
    value {
      list {
        s: "loc:@MobilenetV2/expanded_conv/depthwise/BatchNorm/moving_variance"
      }
    }
  }
}
node {
  name: "MobilenetV2/expanded_conv/depthwise/BatchNorm/FusedBatchNorm"
  op: "FusedBatchNorm"
  input: "MobilenetV2/expanded_conv/depthwise/depthwise"
  input: "MobilenetV2/expanded_conv/depthwise/BatchNorm/gamma/read"
  input: "MobilenetV2/expanded_conv/depthwise/BatchNorm/beta/read"
  input: "MobilenetV2/expanded_conv/depthwise/BatchNorm/moving_mean/read"
  input: "MobilenetV2/expanded_conv/depthwise/BatchNorm/moving_variance/read"
  attr {
    key: "T"
    value {
      type: DT_FLOAT
    }
  }
  attr {
    key: "data_format"
    value {
      s: "NHWC"
    }
  }
  attr {
    key: "epsilon"
    value {
      f: 0.0010000000475
    }
  }
  attr {
    key: "is_training"
    value {
      b: false
    }
  }
}
node {
  name: "MobilenetV2/expanded_conv/depthwise/BatchNorm/Const"
  op: "Const"
  attr {
    key: "dtype"
    value {
      type: DT_FLOAT
    }
  }
  attr {
    key: "value"
    value {
      tensor {
        dtype: DT_FLOAT
        tensor_shape {
        }
        float_val: 0.999000012875
      }
    }
  }
}
node {
  name: "MobilenetV2/expanded_conv/depthwise/Relu6"
  op: "Relu6"
  input: "MobilenetV2/expanded_conv/depthwise/BatchNorm/FusedBatchNorm"
  attr {
    key: "T"
    value {
      type: DT_FLOAT
    }
  }
}
node {
  name: "MobilenetV2/expanded_conv/depthwise_output"
  op: "Identity"
  input: "MobilenetV2/expanded_conv/depthwise/Relu6"
  attr {
    key: "T"
    value {
      type: DT_FLOAT
    }
  }
}
node {
  name: "MobilenetV2/expanded_conv/project/weights/Initializer/random_uniform/shape"
  op: "Const"
  attr {
    key: "_class"
    value {
      list {
        s: "loc:@MobilenetV2/expanded_conv/project/weights"
      }
    }
  }
  attr {
    key: "dtype"
    value {
      type: DT_INT32
    }
  }
  attr {
    key: "value"
    value {
      tensor {
        dtype: DT_INT32
        tensor_shape {
          dim {
            size: 4
          }
        }
        tensor_content: "\001\000\000\000\001\000\000\000 \000\000\000\020\000\000\000"
      }
    }
  }
}
node {
  name: "MobilenetV2/expanded_conv/project/weights/Initializer/random_uniform/min"
  op: "Const"
  attr {
    key: "_class"
    value {
      list {
        s: "loc:@MobilenetV2/expanded_conv/project/weights"
      }
    }
  }
  attr {
    key: "dtype"
    value {
      type: DT_FLOAT
    }
  }
  attr {
    key: "value"
    value {
      tensor {
        dtype: DT_FLOAT
        tensor_shape {
        }
        float_val: -0.353553384542
      }
    }
  }
}
node {
  name: "MobilenetV2/expanded_conv/project/weights/Initializer/random_uniform/max"
  op: "Const"
  attr {
    key: "_class"
    value {
      list {
        s: "loc:@MobilenetV2/expanded_conv/project/weights"
      }
    }
  }
  attr {
    key: "dtype"
    value {
      type: DT_FLOAT
    }
  }
  attr {
    key: "value"
    value {
      tensor {
        dtype: DT_FLOAT
        tensor_shape {
        }
        float_val: 0.353553384542
      }
    }
  }
}
node {
  name: "MobilenetV2/expanded_conv/project/weights/Initializer/random_uniform/RandomUniform"
  op: "RandomUniform"
  input: "MobilenetV2/expanded_conv/project/weights/Initializer/random_uniform/shape"
  attr {
    key: "T"
    value {
      type: DT_INT32
    }
  }
  attr {
    key: "_class"
    value {
      list {
        s: "loc:@MobilenetV2/expanded_conv/project/weights"
      }
    }
  }
  attr {
    key: "dtype"
    value {
      type: DT_FLOAT
    }
  }
  attr {
    key: "seed"
    value {
      i: 0
    }
  }
  attr {
    key: "seed2"
    value {
      i: 0
    }
  }
}
node {
  name: "MobilenetV2/expanded_conv/project/weights/Initializer/random_uniform/sub"
  op: "Sub"
  input: "MobilenetV2/expanded_conv/project/weights/Initializer/random_uniform/max"
  input: "MobilenetV2/expanded_conv/project/weights/Initializer/random_uniform/min"
  attr {
    key: "T"
    value {
      type: DT_FLOAT
    }
  }
  attr {
    key: "_class"
    value {
      list {
        s: "loc:@MobilenetV2/expanded_conv/project/weights"
      }
    }
  }
}
node {
  name: "MobilenetV2/expanded_conv/project/weights/Initializer/random_uniform/mul"
  op: "Mul"
  input: "MobilenetV2/expanded_conv/project/weights/Initializer/random_uniform/RandomUniform"
  input: "MobilenetV2/expanded_conv/project/weights/Initializer/random_uniform/sub"
  attr {
    key: "T"
    value {
      type: DT_FLOAT
    }
  }
  attr {
    key: "_class"
    value {
      list {
        s: "loc:@MobilenetV2/expanded_conv/project/weights"
      }
    }
  }
}
node {
  name: "MobilenetV2/expanded_conv/project/weights/Initializer/random_uniform"
  op: "Add"
  input: "MobilenetV2/expanded_conv/project/weights/Initializer/random_uniform/mul"
  input: "MobilenetV2/expanded_conv/project/weights/Initializer/random_uniform/min"
  attr {
    key: "T"
    value {
      type: DT_FLOAT
    }
  }
  attr {
    key: "_class"
    value {
      list {
        s: "loc:@MobilenetV2/expanded_conv/project/weights"
      }
    }
  }
}
node {
  name: "MobilenetV2/expanded_conv/project/weights"
  op: "VariableV2"
  attr {
    key: "_class"
    value {
      list {
        s: "loc:@MobilenetV2/expanded_conv/project/weights"
      }
    }
  }
  attr {
    key: "container"
    value {
      s: ""
    }
  }
  attr {
    key: "dtype"
    value {
      type: DT_FLOAT
    }
  }
  attr {
    key: "shape"
    value {
      shape {
        dim {
          size: 1
        }
        dim {
          size: 1
        }
        dim {
          size: 32
        }
        dim {
          size: 16
        }
      }
    }
  }
  attr {
    key: "shared_name"
    value {
      s: ""
    }
  }
}
node {
  name: "MobilenetV2/expanded_conv/project/weights/Assign"
  op: "Assign"
  input: "MobilenetV2/expanded_conv/project/weights"
  input: "MobilenetV2/expanded_conv/project/weights/Initializer/random_uniform"
  attr {
    key: "T"
    value {
      type: DT_FLOAT
    }
  }
  attr {
    key: "_class"
    value {
      list {
        s: "loc:@MobilenetV2/expanded_conv/project/weights"
      }
    }
  }
  attr {
    key: "use_locking"
    value {
      b: true
    }
  }
  attr {
    key: "validate_shape"
    value {
      b: true
    }
  }
}
node {
  name: "MobilenetV2/expanded_conv/project/weights/read"
  op: "Identity"
  input: "MobilenetV2/expanded_conv/project/weights"
  attr {
    key: "T"
    value {
      type: DT_FLOAT
    }
  }
  attr {
    key: "_class"
    value {
      list {
        s: "loc:@MobilenetV2/expanded_conv/project/weights"
      }
    }
  }
}
node {
  name: "MobilenetV2/expanded_conv/project/dilation_rate"
  op: "Const"
  attr {
    key: "dtype"
    value {
      type: DT_INT32
    }
  }
  attr {
    key: "value"
    value {
      tensor {
        dtype: DT_INT32
        tensor_shape {
          dim {
            size: 2
          }
        }
        tensor_content: "\001\000\000\000\001\000\000\000"
      }
    }
  }
}
node {
  name: "MobilenetV2/expanded_conv/project/Conv2D"
  op: "Conv2D"
  input: "MobilenetV2/expanded_conv/depthwise_output"
  input: "MobilenetV2/expanded_conv/project/weights/read"
  attr {
    key: "T"
    value {
      type: DT_FLOAT
    }
  }
  attr {
    key: "data_format"
    value {
      s: "NHWC"
    }
  }
  attr {
    key: "dilations"
    value {
      list {
        i: 1
        i: 1
        i: 1
        i: 1
      }
    }
  }
  attr {
    key: "padding"
    value {
      s: "SAME"
    }
  }
  attr {
    key: "strides"
    value {
      list {
        i: 1
        i: 1
        i: 1
        i: 1
      }
    }
  }
  attr {
    key: "use_cudnn_on_gpu"
    value {
      b: true
    }
  }
}
node {
  name: "MobilenetV2/expanded_conv/project/BatchNorm/gamma/Initializer/ones/shape_as_tensor"
  op: "Const"
  attr {
    key: "_class"
    value {
      list {
        s: "loc:@MobilenetV2/expanded_conv/project/BatchNorm/gamma"
      }
    }
  }
  attr {
    key: "dtype"
    value {
      type: DT_INT32
    }
  }
  attr {
    key: "value"
    value {
      tensor {
        dtype: DT_INT32
        tensor_shape {
          dim {
            size: 1
          }
        }
        int_val: 16
      }
    }
  }
}
node {
  name: "MobilenetV2/expanded_conv/project/BatchNorm/gamma/Initializer/ones/Const"
  op: "Const"
  attr {
    key: "_class"
    value {
      list {
        s: "loc:@MobilenetV2/expanded_conv/project/BatchNorm/gamma"
      }
    }
  }
  attr {
    key: "dtype"
    value {
      type: DT_FLOAT
    }
  }
  attr {
    key: "value"
    value {
      tensor {
        dtype: DT_FLOAT
        tensor_shape {
        }
        float_val: 1.0
      }
    }
  }
}
node {
  name: "MobilenetV2/expanded_conv/project/BatchNorm/gamma/Initializer/ones"
  op: "Fill"
  input: "MobilenetV2/expanded_conv/project/BatchNorm/gamma/Initializer/ones/shape_as_tensor"
  input: "MobilenetV2/expanded_conv/project/BatchNorm/gamma/Initializer/ones/Const"
  attr {
    key: "T"
    value {
      type: DT_FLOAT
    }
  }
  attr {
    key: "_class"
    value {
      list {
        s: "loc:@MobilenetV2/expanded_conv/project/BatchNorm/gamma"
      }
    }
  }
  attr {
    key: "index_type"
    value {
      type: DT_INT32
    }
  }
}
node {
  name: "MobilenetV2/expanded_conv/project/BatchNorm/gamma"
  op: "VariableV2"
  attr {
    key: "_class"
    value {
      list {
        s: "loc:@MobilenetV2/expanded_conv/project/BatchNorm/gamma"
      }
    }
  }
  attr {
    key: "container"
    value {
      s: ""
    }
  }
  attr {
    key: "dtype"
    value {
      type: DT_FLOAT
    }
  }
  attr {
    key: "shape"
    value {
      shape {
        dim {
          size: 16
        }
      }
    }
  }
  attr {
    key: "shared_name"
    value {
      s: ""
    }
  }
}
node {
  name: "MobilenetV2/expanded_conv/project/BatchNorm/gamma/Assign"
  op: "Assign"
  input: "MobilenetV2/expanded_conv/project/BatchNorm/gamma"
  input: "MobilenetV2/expanded_conv/project/BatchNorm/gamma/Initializer/ones"
  attr {
    key: "T"
    value {
      type: DT_FLOAT
    }
  }
  attr {
    key: "_class"
    value {
      list {
        s: "loc:@MobilenetV2/expanded_conv/project/BatchNorm/gamma"
      }
    }
  }
  attr {
    key: "use_locking"
    value {
      b: true
    }
  }
  attr {
    key: "validate_shape"
    value {
      b: true
    }
  }
}
node {
  name: "MobilenetV2/expanded_conv/project/BatchNorm/gamma/read"
  op: "Identity"
  input: "MobilenetV2/expanded_conv/project/BatchNorm/gamma"
  attr {
    key: "T"
    value {
      type: DT_FLOAT
    }
  }
  attr {
    key: "_class"
    value {
      list {
        s: "loc:@MobilenetV2/expanded_conv/project/BatchNorm/gamma"
      }
    }
  }
}
node {
  name: "MobilenetV2/expanded_conv/project/BatchNorm/beta/Initializer/zeros/shape_as_tensor"
  op: "Const"
  attr {
    key: "_class"
    value {
      list {
        s: "loc:@MobilenetV2/expanded_conv/project/BatchNorm/beta"
      }
    }
  }
  attr {
    key: "dtype"
    value {
      type: DT_INT32
    }
  }
  attr {
    key: "value"
    value {
      tensor {
        dtype: DT_INT32
        tensor_shape {
          dim {
            size: 1
          }
        }
        int_val: 16
      }
    }
  }
}
node {
  name: "MobilenetV2/expanded_conv/project/BatchNorm/beta/Initializer/zeros/Const"
  op: "Const"
  attr {
    key: "_class"
    value {
      list {
        s: "loc:@MobilenetV2/expanded_conv/project/BatchNorm/beta"
      }
    }
  }
  attr {
    key: "dtype"
    value {
      type: DT_FLOAT
    }
  }
  attr {
    key: "value"
    value {
      tensor {
        dtype: DT_FLOAT
        tensor_shape {
        }
        float_val: 0.0
      }
    }
  }
}
node {
  name: "MobilenetV2/expanded_conv/project/BatchNorm/beta/Initializer/zeros"
  op: "Fill"
  input: "MobilenetV2/expanded_conv/project/BatchNorm/beta/Initializer/zeros/shape_as_tensor"
  input: "MobilenetV2/expanded_conv/project/BatchNorm/beta/Initializer/zeros/Const"
  attr {
    key: "T"
    value {
      type: DT_FLOAT
    }
  }
  attr {
    key: "_class"
    value {
      list {
        s: "loc:@MobilenetV2/expanded_conv/project/BatchNorm/beta"
      }
    }
  }
  attr {
    key: "index_type"
    value {
      type: DT_INT32
    }
  }
}
node {
  name: "MobilenetV2/expanded_conv/project/BatchNorm/beta"
  op: "VariableV2"
  attr {
    key: "_class"
    value {
      list {
        s: "loc:@MobilenetV2/expanded_conv/project/BatchNorm/beta"
      }
    }
  }
  attr {
    key: "container"
    value {
      s: ""
    }
  }
  attr {
    key: "dtype"
    value {
      type: DT_FLOAT
    }
  }
  attr {
    key: "shape"
    value {
      shape {
        dim {
          size: 16
        }
      }
    }
  }
  attr {
    key: "shared_name"
    value {
      s: ""
    }
  }
}
node {
  name: "MobilenetV2/expanded_conv/project/BatchNorm/beta/Assign"
  op: "Assign"
  input: "MobilenetV2/expanded_conv/project/BatchNorm/beta"
  input: "MobilenetV2/expanded_conv/project/BatchNorm/beta/Initializer/zeros"
  attr {
    key: "T"
    value {
      type: DT_FLOAT
    }
  }
  attr {
    key: "_class"
    value {
      list {
        s: "loc:@MobilenetV2/expanded_conv/project/BatchNorm/beta"
      }
    }
  }
  attr {
    key: "use_locking"
    value {
      b: true
    }
  }
  attr {
    key: "validate_shape"
    value {
      b: true
    }
  }
}
node {
  name: "MobilenetV2/expanded_conv/project/BatchNorm/beta/read"
  op: "Identity"
  input: "MobilenetV2/expanded_conv/project/BatchNorm/beta"
  attr {
    key: "T"
    value {
      type: DT_FLOAT
    }
  }
  attr {
    key: "_class"
    value {
      list {
        s: "loc:@MobilenetV2/expanded_conv/project/BatchNorm/beta"
      }
    }
  }
}
node {
  name: "MobilenetV2/expanded_conv/project/BatchNorm/moving_mean/Initializer/zeros/shape_as_tensor"
  op: "Const"
  attr {
    key: "_class"
    value {
      list {
        s: "loc:@MobilenetV2/expanded_conv/project/BatchNorm/moving_mean"
      }
    }
  }
  attr {
    key: "dtype"
    value {
      type: DT_INT32
    }
  }
  attr {
    key: "value"
    value {
      tensor {
        dtype: DT_INT32
        tensor_shape {
          dim {
            size: 1
          }
        }
        int_val: 16
      }
    }
  }
}
node {
  name: "MobilenetV2/expanded_conv/project/BatchNorm/moving_mean/Initializer/zeros/Const"
  op: "Const"
  attr {
    key: "_class"
    value {
      list {
        s: "loc:@MobilenetV2/expanded_conv/project/BatchNorm/moving_mean"
      }
    }
  }
  attr {
    key: "dtype"
    value {
      type: DT_FLOAT
    }
  }
  attr {
    key: "value"
    value {
      tensor {
        dtype: DT_FLOAT
        tensor_shape {
        }
        float_val: 0.0
      }
    }
  }
}
node {
  name: "MobilenetV2/expanded_conv/project/BatchNorm/moving_mean/Initializer/zeros"
  op: "Fill"
  input: "MobilenetV2/expanded_conv/project/BatchNorm/moving_mean/Initializer/zeros/shape_as_tensor"
  input: "MobilenetV2/expanded_conv/project/BatchNorm/moving_mean/Initializer/zeros/Const"
  attr {
    key: "T"
    value {
      type: DT_FLOAT
    }
  }
  attr {
    key: "_class"
    value {
      list {
        s: "loc:@MobilenetV2/expanded_conv/project/BatchNorm/moving_mean"
      }
    }
  }
  attr {
    key: "index_type"
    value {
      type: DT_INT32
    }
  }
}
node {
  name: "MobilenetV2/expanded_conv/project/BatchNorm/moving_mean"
  op: "VariableV2"
  attr {
    key: "_class"
    value {
      list {
        s: "loc:@MobilenetV2/expanded_conv/project/BatchNorm/moving_mean"
      }
    }
  }
  attr {
    key: "container"
    value {
      s: ""
    }
  }
  attr {
    key: "dtype"
    value {
      type: DT_FLOAT
    }
  }
  attr {
    key: "shape"
    value {
      shape {
        dim {
          size: 16
        }
      }
    }
  }
  attr {
    key: "shared_name"
    value {
      s: ""
    }
  }
}
node {
  name: "MobilenetV2/expanded_conv/project/BatchNorm/moving_mean/Assign"
  op: "Assign"
  input: "MobilenetV2/expanded_conv/project/BatchNorm/moving_mean"
  input: "MobilenetV2/expanded_conv/project/BatchNorm/moving_mean/Initializer/zeros"
  attr {
    key: "T"
    value {
      type: DT_FLOAT
    }
  }
  attr {
    key: "_class"
    value {
      list {
        s: "loc:@MobilenetV2/expanded_conv/project/BatchNorm/moving_mean"
      }
    }
  }
  attr {
    key: "use_locking"
    value {
      b: true
    }
  }
  attr {
    key: "validate_shape"
    value {
      b: true
    }
  }
}
node {
  name: "MobilenetV2/expanded_conv/project/BatchNorm/moving_mean/read"
  op: "Identity"
  input: "MobilenetV2/expanded_conv/project/BatchNorm/moving_mean"
  attr {
    key: "T"
    value {
      type: DT_FLOAT
    }
  }
  attr {
    key: "_class"
    value {
      list {
        s: "loc:@MobilenetV2/expanded_conv/project/BatchNorm/moving_mean"
      }
    }
  }
}
node {
  name: "MobilenetV2/expanded_conv/project/BatchNorm/moving_variance/Initializer/ones/shape_as_tensor"
  op: "Const"
  attr {
    key: "_class"
    value {
      list {
        s: "loc:@MobilenetV2/expanded_conv/project/BatchNorm/moving_variance"
      }
    }
  }
  attr {
    key: "dtype"
    value {
      type: DT_INT32
    }
  }
  attr {
    key: "value"
    value {
      tensor {
        dtype: DT_INT32
        tensor_shape {
          dim {
            size: 1
          }
        }
        int_val: 16
      }
    }
  }
}
node {
  name: "MobilenetV2/expanded_conv/project/BatchNorm/moving_variance/Initializer/ones/Const"
  op: "Const"
  attr {
    key: "_class"
    value {
      list {
        s: "loc:@MobilenetV2/expanded_conv/project/BatchNorm/moving_variance"
      }
    }
  }
  attr {
    key: "dtype"
    value {
      type: DT_FLOAT
    }
  }
  attr {
    key: "value"
    value {
      tensor {
        dtype: DT_FLOAT
        tensor_shape {
        }
        float_val: 1.0
      }
    }
  }
}
node {
  name: "MobilenetV2/expanded_conv/project/BatchNorm/moving_variance/Initializer/ones"
  op: "Fill"
  input: "MobilenetV2/expanded_conv/project/BatchNorm/moving_variance/Initializer/ones/shape_as_tensor"
  input: "MobilenetV2/expanded_conv/project/BatchNorm/moving_variance/Initializer/ones/Const"
  attr {
    key: "T"
    value {
      type: DT_FLOAT
    }
  }
  attr {
    key: "_class"
    value {
      list {
        s: "loc:@MobilenetV2/expanded_conv/project/BatchNorm/moving_variance"
      }
    }
  }
  attr {
    key: "index_type"
    value {
      type: DT_INT32
    }
  }
}
node {
  name: "MobilenetV2/expanded_conv/project/BatchNorm/moving_variance"
  op: "VariableV2"
  attr {
    key: "_class"
    value {
      list {
        s: "loc:@MobilenetV2/expanded_conv/project/BatchNorm/moving_variance"
      }
    }
  }
  attr {
    key: "container"
    value {
      s: ""
    }
  }
  attr {
    key: "dtype"
    value {
      type: DT_FLOAT
    }
  }
  attr {
    key: "shape"
    value {
      shape {
        dim {
          size: 16
        }
      }
    }
  }
  attr {
    key: "shared_name"
    value {
      s: ""
    }
  }
}
node {
  name: "MobilenetV2/expanded_conv/project/BatchNorm/moving_variance/Assign"
  op: "Assign"
  input: "MobilenetV2/expanded_conv/project/BatchNorm/moving_variance"
  input: "MobilenetV2/expanded_conv/project/BatchNorm/moving_variance/Initializer/ones"
  attr {
    key: "T"
    value {
      type: DT_FLOAT
    }
  }
  attr {
    key: "_class"
    value {
      list {
        s: "loc:@MobilenetV2/expanded_conv/project/BatchNorm/moving_variance"
      }
    }
  }
  attr {
    key: "use_locking"
    value {
      b: true
    }
  }
  attr {
    key: "validate_shape"
    value {
      b: true
    }
  }
}
node {
  name: "MobilenetV2/expanded_conv/project/BatchNorm/moving_variance/read"
  op: "Identity"
  input: "MobilenetV2/expanded_conv/project/BatchNorm/moving_variance"
  attr {
    key: "T"
    value {
      type: DT_FLOAT
    }
  }
  attr {
    key: "_class"
    value {
      list {
        s: "loc:@MobilenetV2/expanded_conv/project/BatchNorm/moving_variance"
      }
    }
  }
}
node {
  name: "MobilenetV2/expanded_conv/project/BatchNorm/FusedBatchNorm"
  op: "FusedBatchNorm"
  input: "MobilenetV2/expanded_conv/project/Conv2D"
  input: "MobilenetV2/expanded_conv/project/BatchNorm/gamma/read"
  input: "MobilenetV2/expanded_conv/project/BatchNorm/beta/read"
  input: "MobilenetV2/expanded_conv/project/BatchNorm/moving_mean/read"
  input: "MobilenetV2/expanded_conv/project/BatchNorm/moving_variance/read"
  attr {
    key: "T"
    value {
      type: DT_FLOAT
    }
  }
  attr {
    key: "data_format"
    value {
      s: "NHWC"
    }
  }
  attr {
    key: "epsilon"
    value {
      f: 0.0010000000475
    }
  }
  attr {
    key: "is_training"
    value {
      b: false
    }
  }
}
node {
  name: "MobilenetV2/expanded_conv/project/BatchNorm/Const"
  op: "Const"
  attr {
    key: "dtype"
    value {
      type: DT_FLOAT
    }
  }
  attr {
    key: "value"
    value {
      tensor {
        dtype: DT_FLOAT
        tensor_shape {
        }
        float_val: 0.999000012875
      }
    }
  }
}
node {
  name: "MobilenetV2/expanded_conv/project/Identity"
  op: "Identity"
  input: "MobilenetV2/expanded_conv/project/BatchNorm/FusedBatchNorm"
  attr {
    key: "T"
    value {
      type: DT_FLOAT
    }
  }
}
node {
  name: "MobilenetV2/expanded_conv/output"
  op: "Identity"
  input: "MobilenetV2/expanded_conv/project/Identity"
  attr {
    key: "T"
    value {
      type: DT_FLOAT
    }
  }
}
node {
  name: "MobilenetV2/expanded_conv_1/input"
  op: "Identity"
  input: "MobilenetV2/expanded_conv/output"
  attr {
    key: "T"
    value {
      type: DT_FLOAT
    }
  }
}
node {
  name: "MobilenetV2/expanded_conv_1/expand/weights/Initializer/random_uniform/shape"
  op: "Const"
  attr {
    key: "_class"
    value {
      list {
        s: "loc:@MobilenetV2/expanded_conv_1/expand/weights"
      }
    }
  }
  attr {
    key: "dtype"
    value {
      type: DT_INT32
    }
  }
  attr {
    key: "value"
    value {
      tensor {
        dtype: DT_INT32
        tensor_shape {
          dim {
            size: 4
          }
        }
        tensor_content: "\001\000\000\000\001\000\000\000\020\000\000\000`\000\000\000"
      }
    }
  }
}
node {
  name: "MobilenetV2/expanded_conv_1/expand/weights/Initializer/random_uniform/min"
  op: "Const"
  attr {
    key: "_class"
    value {
      list {
        s: "loc:@MobilenetV2/expanded_conv_1/expand/weights"
      }
    }
  }
  attr {
    key: "dtype"
    value {
      type: DT_FLOAT
    }
  }
  attr {
    key: "value"
    value {
      tensor {
        dtype: DT_FLOAT
        tensor_shape {
        }
        float_val: -0.231455028057
      }
    }
  }
}
node {
  name: "MobilenetV2/expanded_conv_1/expand/weights/Initializer/random_uniform/max"
  op: "Const"
  attr {
    key: "_class"
    value {
      list {
        s: "loc:@MobilenetV2/expanded_conv_1/expand/weights"
      }
    }
  }
  attr {
    key: "dtype"
    value {
      type: DT_FLOAT
    }
  }
  attr {
    key: "value"
    value {
      tensor {
        dtype: DT_FLOAT
        tensor_shape {
        }
        float_val: 0.231455028057
      }
    }
  }
}
node {
  name: "MobilenetV2/expanded_conv_1/expand/weights/Initializer/random_uniform/RandomUniform"
  op: "RandomUniform"
  input: "MobilenetV2/expanded_conv_1/expand/weights/Initializer/random_uniform/shape"
  attr {
    key: "T"
    value {
      type: DT_INT32
    }
  }
  attr {
    key: "_class"
    value {
      list {
        s: "loc:@MobilenetV2/expanded_conv_1/expand/weights"
      }
    }
  }
  attr {
    key: "dtype"
    value {
      type: DT_FLOAT
    }
  }
  attr {
    key: "seed"
    value {
      i: 0
    }
  }
  attr {
    key: "seed2"
    value {
      i: 0
    }
  }
}
node {
  name: "MobilenetV2/expanded_conv_1/expand/weights/Initializer/random_uniform/sub"
  op: "Sub"
  input: "MobilenetV2/expanded_conv_1/expand/weights/Initializer/random_uniform/max"
  input: "MobilenetV2/expanded_conv_1/expand/weights/Initializer/random_uniform/min"
  attr {
    key: "T"
    value {
      type: DT_FLOAT
    }
  }
  attr {
    key: "_class"
    value {
      list {
        s: "loc:@MobilenetV2/expanded_conv_1/expand/weights"
      }
    }
  }
}
node {
  name: "MobilenetV2/expanded_conv_1/expand/weights/Initializer/random_uniform/mul"
  op: "Mul"
  input: "MobilenetV2/expanded_conv_1/expand/weights/Initializer/random_uniform/RandomUniform"
  input: "MobilenetV2/expanded_conv_1/expand/weights/Initializer/random_uniform/sub"
  attr {
    key: "T"
    value {
      type: DT_FLOAT
    }
  }
  attr {
    key: "_class"
    value {
      list {
        s: "loc:@MobilenetV2/expanded_conv_1/expand/weights"
      }
    }
  }
}
node {
  name: "MobilenetV2/expanded_conv_1/expand/weights/Initializer/random_uniform"
  op: "Add"
  input: "MobilenetV2/expanded_conv_1/expand/weights/Initializer/random_uniform/mul"
  input: "MobilenetV2/expanded_conv_1/expand/weights/Initializer/random_uniform/min"
  attr {
    key: "T"
    value {
      type: DT_FLOAT
    }
  }
  attr {
    key: "_class"
    value {
      list {
        s: "loc:@MobilenetV2/expanded_conv_1/expand/weights"
      }
    }
  }
}
node {
  name: "MobilenetV2/expanded_conv_1/expand/weights"
  op: "VariableV2"
  attr {
    key: "_class"
    value {
      list {
        s: "loc:@MobilenetV2/expanded_conv_1/expand/weights"
      }
    }
  }
  attr {
    key: "container"
    value {
      s: ""
    }
  }
  attr {
    key: "dtype"
    value {
      type: DT_FLOAT
    }
  }
  attr {
    key: "shape"
    value {
      shape {
        dim {
          size: 1
        }
        dim {
          size: 1
        }
        dim {
          size: 16
        }
        dim {
          size: 96
        }
      }
    }
  }
  attr {
    key: "shared_name"
    value {
      s: ""
    }
  }
}
node {
  name: "MobilenetV2/expanded_conv_1/expand/weights/Assign"
  op: "Assign"
  input: "MobilenetV2/expanded_conv_1/expand/weights"
  input: "MobilenetV2/expanded_conv_1/expand/weights/Initializer/random_uniform"
  attr {
    key: "T"
    value {
      type: DT_FLOAT
    }
  }
  attr {
    key: "_class"
    value {
      list {
        s: "loc:@MobilenetV2/expanded_conv_1/expand/weights"
      }
    }
  }
  attr {
    key: "use_locking"
    value {
      b: true
    }
  }
  attr {
    key: "validate_shape"
    value {
      b: true
    }
  }
}
node {
  name: "MobilenetV2/expanded_conv_1/expand/weights/read"
  op: "Identity"
  input: "MobilenetV2/expanded_conv_1/expand/weights"
  attr {
    key: "T"
    value {
      type: DT_FLOAT
    }
  }
  attr {
    key: "_class"
    value {
      list {
        s: "loc:@MobilenetV2/expanded_conv_1/expand/weights"
      }
    }
  }
}
node {
  name: "MobilenetV2/expanded_conv_1/expand/dilation_rate"
  op: "Const"
  attr {
    key: "dtype"
    value {
      type: DT_INT32
    }
  }
  attr {
    key: "value"
    value {
      tensor {
        dtype: DT_INT32
        tensor_shape {
          dim {
            size: 2
          }
        }
        tensor_content: "\001\000\000\000\001\000\000\000"
      }
    }
  }
}
node {
  name: "MobilenetV2/expanded_conv_1/expand/Conv2D"
  op: "Conv2D"
  input: "MobilenetV2/expanded_conv_1/input"
  input: "MobilenetV2/expanded_conv_1/expand/weights/read"
  attr {
    key: "T"
    value {
      type: DT_FLOAT
    }
  }
  attr {
    key: "data_format"
    value {
      s: "NHWC"
    }
  }
  attr {
    key: "dilations"
    value {
      list {
        i: 1
        i: 1
        i: 1
        i: 1
      }
    }
  }
  attr {
    key: "padding"
    value {
      s: "SAME"
    }
  }
  attr {
    key: "strides"
    value {
      list {
        i: 1
        i: 1
        i: 1
        i: 1
      }
    }
  }
  attr {
    key: "use_cudnn_on_gpu"
    value {
      b: true
    }
  }
}
node {
  name: "MobilenetV2/expanded_conv_1/expand/BatchNorm/gamma/Initializer/ones/shape_as_tensor"
  op: "Const"
  attr {
    key: "_class"
    value {
      list {
        s: "loc:@MobilenetV2/expanded_conv_1/expand/BatchNorm/gamma"
      }
    }
  }
  attr {
    key: "dtype"
    value {
      type: DT_INT32
    }
  }
  attr {
    key: "value"
    value {
      tensor {
        dtype: DT_INT32
        tensor_shape {
          dim {
            size: 1
          }
        }
        int_val: 96
      }
    }
  }
}
node {
  name: "MobilenetV2/expanded_conv_1/expand/BatchNorm/gamma/Initializer/ones/Const"
  op: "Const"
  attr {
    key: "_class"
    value {
      list {
        s: "loc:@MobilenetV2/expanded_conv_1/expand/BatchNorm/gamma"
      }
    }
  }
  attr {
    key: "dtype"
    value {
      type: DT_FLOAT
    }
  }
  attr {
    key: "value"
    value {
      tensor {
        dtype: DT_FLOAT
        tensor_shape {
        }
        float_val: 1.0
      }
    }
  }
}
node {
  name: "MobilenetV2/expanded_conv_1/expand/BatchNorm/gamma/Initializer/ones"
  op: "Fill"
  input: "MobilenetV2/expanded_conv_1/expand/BatchNorm/gamma/Initializer/ones/shape_as_tensor"
  input: "MobilenetV2/expanded_conv_1/expand/BatchNorm/gamma/Initializer/ones/Const"
  attr {
    key: "T"
    value {
      type: DT_FLOAT
    }
  }
  attr {
    key: "_class"
    value {
      list {
        s: "loc:@MobilenetV2/expanded_conv_1/expand/BatchNorm/gamma"
      }
    }
  }
  attr {
    key: "index_type"
    value {
      type: DT_INT32
    }
  }
}
node {
  name: "MobilenetV2/expanded_conv_1/expand/BatchNorm/gamma"
  op: "VariableV2"
  attr {
    key: "_class"
    value {
      list {
        s: "loc:@MobilenetV2/expanded_conv_1/expand/BatchNorm/gamma"
      }
    }
  }
  attr {
    key: "container"
    value {
      s: ""
    }
  }
  attr {
    key: "dtype"
    value {
      type: DT_FLOAT
    }
  }
  attr {
    key: "shape"
    value {
      shape {
        dim {
          size: 96
        }
      }
    }
  }
  attr {
    key: "shared_name"
    value {
      s: ""
    }
  }
}
node {
  name: "MobilenetV2/expanded_conv_1/expand/BatchNorm/gamma/Assign"
  op: "Assign"
  input: "MobilenetV2/expanded_conv_1/expand/BatchNorm/gamma"
  input: "MobilenetV2/expanded_conv_1/expand/BatchNorm/gamma/Initializer/ones"
  attr {
    key: "T"
    value {
      type: DT_FLOAT
    }
  }
  attr {
    key: "_class"
    value {
      list {
        s: "loc:@MobilenetV2/expanded_conv_1/expand/BatchNorm/gamma"
      }
    }
  }
  attr {
    key: "use_locking"
    value {
      b: true
    }
  }
  attr {
    key: "validate_shape"
    value {
      b: true
    }
  }
}
node {
  name: "MobilenetV2/expanded_conv_1/expand/BatchNorm/gamma/read"
  op: "Identity"
  input: "MobilenetV2/expanded_conv_1/expand/BatchNorm/gamma"
  attr {
    key: "T"
    value {
      type: DT_FLOAT
    }
  }
  attr {
    key: "_class"
    value {
      list {
        s: "loc:@MobilenetV2/expanded_conv_1/expand/BatchNorm/gamma"
      }
    }
  }
}
node {
  name: "MobilenetV2/expanded_conv_1/expand/BatchNorm/beta/Initializer/zeros/shape_as_tensor"
  op: "Const"
  attr {
    key: "_class"
    value {
      list {
        s: "loc:@MobilenetV2/expanded_conv_1/expand/BatchNorm/beta"
      }
    }
  }
  attr {
    key: "dtype"
    value {
      type: DT_INT32
    }
  }
  attr {
    key: "value"
    value {
      tensor {
        dtype: DT_INT32
        tensor_shape {
          dim {
            size: 1
          }
        }
        int_val: 96
      }
    }
  }
}
node {
  name: "MobilenetV2/expanded_conv_1/expand/BatchNorm/beta/Initializer/zeros/Const"
  op: "Const"
  attr {
    key: "_class"
    value {
      list {
        s: "loc:@MobilenetV2/expanded_conv_1/expand/BatchNorm/beta"
      }
    }
  }
  attr {
    key: "dtype"
    value {
      type: DT_FLOAT
    }
  }
  attr {
    key: "value"
    value {
      tensor {
        dtype: DT_FLOAT
        tensor_shape {
        }
        float_val: 0.0
      }
    }
  }
}
node {
  name: "MobilenetV2/expanded_conv_1/expand/BatchNorm/beta/Initializer/zeros"
  op: "Fill"
  input: "MobilenetV2/expanded_conv_1/expand/BatchNorm/beta/Initializer/zeros/shape_as_tensor"
  input: "MobilenetV2/expanded_conv_1/expand/BatchNorm/beta/Initializer/zeros/Const"
  attr {
    key: "T"
    value {
      type: DT_FLOAT
    }
  }
  attr {
    key: "_class"
    value {
      list {
        s: "loc:@MobilenetV2/expanded_conv_1/expand/BatchNorm/beta"
      }
    }
  }
  attr {
    key: "index_type"
    value {
      type: DT_INT32
    }
  }
}
node {
  name: "MobilenetV2/expanded_conv_1/expand/BatchNorm/beta"
  op: "VariableV2"
  attr {
    key: "_class"
    value {
      list {
        s: "loc:@MobilenetV2/expanded_conv_1/expand/BatchNorm/beta"
      }
    }
  }
  attr {
    key: "container"
    value {
      s: ""
    }
  }
  attr {
    key: "dtype"
    value {
      type: DT_FLOAT
    }
  }
  attr {
    key: "shape"
    value {
      shape {
        dim {
          size: 96
        }
      }
    }
  }
  attr {
    key: "shared_name"
    value {
      s: ""
    }
  }
}
node {
  name: "MobilenetV2/expanded_conv_1/expand/BatchNorm/beta/Assign"
  op: "Assign"
  input: "MobilenetV2/expanded_conv_1/expand/BatchNorm/beta"
  input: "MobilenetV2/expanded_conv_1/expand/BatchNorm/beta/Initializer/zeros"
  attr {
    key: "T"
    value {
      type: DT_FLOAT
    }
  }
  attr {
    key: "_class"
    value {
      list {
        s: "loc:@MobilenetV2/expanded_conv_1/expand/BatchNorm/beta"
      }
    }
  }
  attr {
    key: "use_locking"
    value {
      b: true
    }
  }
  attr {
    key: "validate_shape"
    value {
      b: true
    }
  }
}
node {
  name: "MobilenetV2/expanded_conv_1/expand/BatchNorm/beta/read"
  op: "Identity"
  input: "MobilenetV2/expanded_conv_1/expand/BatchNorm/beta"
  attr {
    key: "T"
    value {
      type: DT_FLOAT
    }
  }
  attr {
    key: "_class"
    value {
      list {
        s: "loc:@MobilenetV2/expanded_conv_1/expand/BatchNorm/beta"
      }
    }
  }
}
node {
  name: "MobilenetV2/expanded_conv_1/expand/BatchNorm/moving_mean/Initializer/zeros/shape_as_tensor"
  op: "Const"
  attr {
    key: "_class"
    value {
      list {
        s: "loc:@MobilenetV2/expanded_conv_1/expand/BatchNorm/moving_mean"
      }
    }
  }
  attr {
    key: "dtype"
    value {
      type: DT_INT32
    }
  }
  attr {
    key: "value"
    value {
      tensor {
        dtype: DT_INT32
        tensor_shape {
          dim {
            size: 1
          }
        }
        int_val: 96
      }
    }
  }
}
node {
  name: "MobilenetV2/expanded_conv_1/expand/BatchNorm/moving_mean/Initializer/zeros/Const"
  op: "Const"
  attr {
    key: "_class"
    value {
      list {
        s: "loc:@MobilenetV2/expanded_conv_1/expand/BatchNorm/moving_mean"
      }
    }
  }
  attr {
    key: "dtype"
    value {
      type: DT_FLOAT
    }
  }
  attr {
    key: "value"
    value {
      tensor {
        dtype: DT_FLOAT
        tensor_shape {
        }
        float_val: 0.0
      }
    }
  }
}
node {
  name: "MobilenetV2/expanded_conv_1/expand/BatchNorm/moving_mean/Initializer/zeros"
  op: "Fill"
  input: "MobilenetV2/expanded_conv_1/expand/BatchNorm/moving_mean/Initializer/zeros/shape_as_tensor"
  input: "MobilenetV2/expanded_conv_1/expand/BatchNorm/moving_mean/Initializer/zeros/Const"
  attr {
    key: "T"
    value {
      type: DT_FLOAT
    }
  }
  attr {
    key: "_class"
    value {
      list {
        s: "loc:@MobilenetV2/expanded_conv_1/expand/BatchNorm/moving_mean"
      }
    }
  }
  attr {
    key: "index_type"
    value {
      type: DT_INT32
    }
  }
}
node {
  name: "MobilenetV2/expanded_conv_1/expand/BatchNorm/moving_mean"
  op: "VariableV2"
  attr {
    key: "_class"
    value {
      list {
        s: "loc:@MobilenetV2/expanded_conv_1/expand/BatchNorm/moving_mean"
      }
    }
  }
  attr {
    key: "container"
    value {
      s: ""
    }
  }
  attr {
    key: "dtype"
    value {
      type: DT_FLOAT
    }
  }
  attr {
    key: "shape"
    value {
      shape {
        dim {
          size: 96
        }
      }
    }
  }
  attr {
    key: "shared_name"
    value {
      s: ""
    }
  }
}
node {
  name: "MobilenetV2/expanded_conv_1/expand/BatchNorm/moving_mean/Assign"
  op: "Assign"
  input: "MobilenetV2/expanded_conv_1/expand/BatchNorm/moving_mean"
  input: "MobilenetV2/expanded_conv_1/expand/BatchNorm/moving_mean/Initializer/zeros"
  attr {
    key: "T"
    value {
      type: DT_FLOAT
    }
  }
  attr {
    key: "_class"
    value {
      list {
        s: "loc:@MobilenetV2/expanded_conv_1/expand/BatchNorm/moving_mean"
      }
    }
  }
  attr {
    key: "use_locking"
    value {
      b: true
    }
  }
  attr {
    key: "validate_shape"
    value {
      b: true
    }
  }
}
node {
  name: "MobilenetV2/expanded_conv_1/expand/BatchNorm/moving_mean/read"
  op: "Identity"
  input: "MobilenetV2/expanded_conv_1/expand/BatchNorm/moving_mean"
  attr {
    key: "T"
    value {
      type: DT_FLOAT
    }
  }
  attr {
    key: "_class"
    value {
      list {
        s: "loc:@MobilenetV2/expanded_conv_1/expand/BatchNorm/moving_mean"
      }
    }
  }
}
node {
  name: "MobilenetV2/expanded_conv_1/expand/BatchNorm/moving_variance/Initializer/ones/shape_as_tensor"
  op: "Const"
  attr {
    key: "_class"
    value {
      list {
        s: "loc:@MobilenetV2/expanded_conv_1/expand/BatchNorm/moving_variance"
      }
    }
  }
  attr {
    key: "dtype"
    value {
      type: DT_INT32
    }
  }
  attr {
    key: "value"
    value {
      tensor {
        dtype: DT_INT32
        tensor_shape {
          dim {
            size: 1
          }
        }
        int_val: 96
      }
    }
  }
}
node {
  name: "MobilenetV2/expanded_conv_1/expand/BatchNorm/moving_variance/Initializer/ones/Const"
  op: "Const"
  attr {
    key: "_class"
    value {
      list {
        s: "loc:@MobilenetV2/expanded_conv_1/expand/BatchNorm/moving_variance"
      }
    }
  }
  attr {
    key: "dtype"
    value {
      type: DT_FLOAT
    }
  }
  attr {
    key: "value"
    value {
      tensor {
        dtype: DT_FLOAT
        tensor_shape {
        }
        float_val: 1.0
      }
    }
  }
}
node {
  name: "MobilenetV2/expanded_conv_1/expand/BatchNorm/moving_variance/Initializer/ones"
  op: "Fill"
  input: "MobilenetV2/expanded_conv_1/expand/BatchNorm/moving_variance/Initializer/ones/shape_as_tensor"
  input: "MobilenetV2/expanded_conv_1/expand/BatchNorm/moving_variance/Initializer/ones/Const"
  attr {
    key: "T"
    value {
      type: DT_FLOAT
    }
  }
  attr {
    key: "_class"
    value {
      list {
        s: "loc:@MobilenetV2/expanded_conv_1/expand/BatchNorm/moving_variance"
      }
    }
  }
  attr {
    key: "index_type"
    value {
      type: DT_INT32
    }
  }
}
node {
  name: "MobilenetV2/expanded_conv_1/expand/BatchNorm/moving_variance"
  op: "VariableV2"
  attr {
    key: "_class"
    value {
      list {
        s: "loc:@MobilenetV2/expanded_conv_1/expand/BatchNorm/moving_variance"
      }
    }
  }
  attr {
    key: "container"
    value {
      s: ""
    }
  }
  attr {
    key: "dtype"
    value {
      type: DT_FLOAT
    }
  }
  attr {
    key: "shape"
    value {
      shape {
        dim {
          size: 96
        }
      }
    }
  }
  attr {
    key: "shared_name"
    value {
      s: ""
    }
  }
}
node {
  name: "MobilenetV2/expanded_conv_1/expand/BatchNorm/moving_variance/Assign"
  op: "Assign"
  input: "MobilenetV2/expanded_conv_1/expand/BatchNorm/moving_variance"
  input: "MobilenetV2/expanded_conv_1/expand/BatchNorm/moving_variance/Initializer/ones"
  attr {
    key: "T"
    value {
      type: DT_FLOAT
    }
  }
  attr {
    key: "_class"
    value {
      list {
        s: "loc:@MobilenetV2/expanded_conv_1/expand/BatchNorm/moving_variance"
      }
    }
  }
  attr {
    key: "use_locking"
    value {
      b: true
    }
  }
  attr {
    key: "validate_shape"
    value {
      b: true
    }
  }
}
node {
  name: "MobilenetV2/expanded_conv_1/expand/BatchNorm/moving_variance/read"
  op: "Identity"
  input: "MobilenetV2/expanded_conv_1/expand/BatchNorm/moving_variance"
  attr {
    key: "T"
    value {
      type: DT_FLOAT
    }
  }
  attr {
    key: "_class"
    value {
      list {
        s: "loc:@MobilenetV2/expanded_conv_1/expand/BatchNorm/moving_variance"
      }
    }
  }
}
node {
  name: "MobilenetV2/expanded_conv_1/expand/BatchNorm/FusedBatchNorm"
  op: "FusedBatchNorm"
  input: "MobilenetV2/expanded_conv_1/expand/Conv2D"
  input: "MobilenetV2/expanded_conv_1/expand/BatchNorm/gamma/read"
  input: "MobilenetV2/expanded_conv_1/expand/BatchNorm/beta/read"
  input: "MobilenetV2/expanded_conv_1/expand/BatchNorm/moving_mean/read"
  input: "MobilenetV2/expanded_conv_1/expand/BatchNorm/moving_variance/read"
  attr {
    key: "T"
    value {
      type: DT_FLOAT
    }
  }
  attr {
    key: "data_format"
    value {
      s: "NHWC"
    }
  }
  attr {
    key: "epsilon"
    value {
      f: 0.0010000000475
    }
  }
  attr {
    key: "is_training"
    value {
      b: false
    }
  }
}
node {
  name: "MobilenetV2/expanded_conv_1/expand/BatchNorm/Const"
  op: "Const"
  attr {
    key: "dtype"
    value {
      type: DT_FLOAT
    }
  }
  attr {
    key: "value"
    value {
      tensor {
        dtype: DT_FLOAT
        tensor_shape {
        }
        float_val: 0.999000012875
      }
    }
  }
}
node {
  name: "MobilenetV2/expanded_conv_1/expand/Relu6"
  op: "Relu6"
  input: "MobilenetV2/expanded_conv_1/expand/BatchNorm/FusedBatchNorm"
  attr {
    key: "T"
    value {
      type: DT_FLOAT
    }
  }
}
node {
  name: "MobilenetV2/expanded_conv_1/expansion_output"
  op: "Identity"
  input: "MobilenetV2/expanded_conv_1/expand/Relu6"
  attr {
    key: "T"
    value {
      type: DT_FLOAT
    }
  }
}
node {
  name: "MobilenetV2/expanded_conv_1/depthwise/depthwise_weights/Initializer/random_uniform/shape"
  op: "Const"
  attr {
    key: "_class"
    value {
      list {
        s: "loc:@MobilenetV2/expanded_conv_1/depthwise/depthwise_weights"
      }
    }
  }
  attr {
    key: "dtype"
    value {
      type: DT_INT32
    }
  }
  attr {
    key: "value"
    value {
      tensor {
        dtype: DT_INT32
        tensor_shape {
          dim {
            size: 4
          }
        }
        tensor_content: "\003\000\000\000\003\000\000\000`\000\000\000\001\000\000\000"
      }
    }
  }
}
node {
  name: "MobilenetV2/expanded_conv_1/depthwise/depthwise_weights/Initializer/random_uniform/min"
  op: "Const"
  attr {
    key: "_class"
    value {
      list {
        s: "loc:@MobilenetV2/expanded_conv_1/depthwise/depthwise_weights"
      }
    }
  }
  attr {
    key: "dtype"
    value {
      type: DT_FLOAT
    }
  }
  attr {
    key: "value"
    value {
      tensor {
        dtype: DT_FLOAT
        tensor_shape {
        }
        float_val: -0.0829026699066
      }
    }
  }
}
node {
  name: "MobilenetV2/expanded_conv_1/depthwise/depthwise_weights/Initializer/random_uniform/max"
  op: "Const"
  attr {
    key: "_class"
    value {
      list {
        s: "loc:@MobilenetV2/expanded_conv_1/depthwise/depthwise_weights"
      }
    }
  }
  attr {
    key: "dtype"
    value {
      type: DT_FLOAT
    }
  }
  attr {
    key: "value"
    value {
      tensor {
        dtype: DT_FLOAT
        tensor_shape {
        }
        float_val: 0.0829026699066
      }
    }
  }
}
node {
  name: "MobilenetV2/expanded_conv_1/depthwise/depthwise_weights/Initializer/random_uniform/RandomUniform"
  op: "RandomUniform"
  input: "MobilenetV2/expanded_conv_1/depthwise/depthwise_weights/Initializer/random_uniform/shape"
  attr {
    key: "T"
    value {
      type: DT_INT32
    }
  }
  attr {
    key: "_class"
    value {
      list {
        s: "loc:@MobilenetV2/expanded_conv_1/depthwise/depthwise_weights"
      }
    }
  }
  attr {
    key: "dtype"
    value {
      type: DT_FLOAT
    }
  }
  attr {
    key: "seed"
    value {
      i: 0
    }
  }
  attr {
    key: "seed2"
    value {
      i: 0
    }
  }
}
node {
  name: "MobilenetV2/expanded_conv_1/depthwise/depthwise_weights/Initializer/random_uniform/sub"
  op: "Sub"
  input: "MobilenetV2/expanded_conv_1/depthwise/depthwise_weights/Initializer/random_uniform/max"
  input: "MobilenetV2/expanded_conv_1/depthwise/depthwise_weights/Initializer/random_uniform/min"
  attr {
    key: "T"
    value {
      type: DT_FLOAT
    }
  }
  attr {
    key: "_class"
    value {
      list {
        s: "loc:@MobilenetV2/expanded_conv_1/depthwise/depthwise_weights"
      }
    }
  }
}
node {
  name: "MobilenetV2/expanded_conv_1/depthwise/depthwise_weights/Initializer/random_uniform/mul"
  op: "Mul"
  input: "MobilenetV2/expanded_conv_1/depthwise/depthwise_weights/Initializer/random_uniform/RandomUniform"
  input: "MobilenetV2/expanded_conv_1/depthwise/depthwise_weights/Initializer/random_uniform/sub"
  attr {
    key: "T"
    value {
      type: DT_FLOAT
    }
  }
  attr {
    key: "_class"
    value {
      list {
        s: "loc:@MobilenetV2/expanded_conv_1/depthwise/depthwise_weights"
      }
    }
  }
}
node {
  name: "MobilenetV2/expanded_conv_1/depthwise/depthwise_weights/Initializer/random_uniform"
  op: "Add"
  input: "MobilenetV2/expanded_conv_1/depthwise/depthwise_weights/Initializer/random_uniform/mul"
  input: "MobilenetV2/expanded_conv_1/depthwise/depthwise_weights/Initializer/random_uniform/min"
  attr {
    key: "T"
    value {
      type: DT_FLOAT
    }
  }
  attr {
    key: "_class"
    value {
      list {
        s: "loc:@MobilenetV2/expanded_conv_1/depthwise/depthwise_weights"
      }
    }
  }
}
node {
  name: "MobilenetV2/expanded_conv_1/depthwise/depthwise_weights"
  op: "VariableV2"
  attr {
    key: "_class"
    value {
      list {
        s: "loc:@MobilenetV2/expanded_conv_1/depthwise/depthwise_weights"
      }
    }
  }
  attr {
    key: "container"
    value {
      s: ""
    }
  }
  attr {
    key: "dtype"
    value {
      type: DT_FLOAT
    }
  }
  attr {
    key: "shape"
    value {
      shape {
        dim {
          size: 3
        }
        dim {
          size: 3
        }
        dim {
          size: 96
        }
        dim {
          size: 1
        }
      }
    }
  }
  attr {
    key: "shared_name"
    value {
      s: ""
    }
  }
}
node {
  name: "MobilenetV2/expanded_conv_1/depthwise/depthwise_weights/Assign"
  op: "Assign"
  input: "MobilenetV2/expanded_conv_1/depthwise/depthwise_weights"
  input: "MobilenetV2/expanded_conv_1/depthwise/depthwise_weights/Initializer/random_uniform"
  attr {
    key: "T"
    value {
      type: DT_FLOAT
    }
  }
  attr {
    key: "_class"
    value {
      list {
        s: "loc:@MobilenetV2/expanded_conv_1/depthwise/depthwise_weights"
      }
    }
  }
  attr {
    key: "use_locking"
    value {
      b: true
    }
  }
  attr {
    key: "validate_shape"
    value {
      b: true
    }
  }
}
node {
  name: "MobilenetV2/expanded_conv_1/depthwise/depthwise_weights/read"
  op: "Identity"
  input: "MobilenetV2/expanded_conv_1/depthwise/depthwise_weights"
  attr {
    key: "T"
    value {
      type: DT_FLOAT
    }
  }
  attr {
    key: "_class"
    value {
      list {
        s: "loc:@MobilenetV2/expanded_conv_1/depthwise/depthwise_weights"
      }
    }
  }
}
node {
  name: "MobilenetV2/expanded_conv_1/depthwise/depthwise/Shape"
  op: "Const"
  attr {
    key: "dtype"
    value {
      type: DT_INT32
    }
  }
  attr {
    key: "value"
    value {
      tensor {
        dtype: DT_INT32
        tensor_shape {
          dim {
            size: 4
          }
        }
        tensor_content: "\003\000\000\000\003\000\000\000`\000\000\000\001\000\000\000"
      }
    }
  }
}
node {
  name: "MobilenetV2/expanded_conv_1/depthwise/depthwise/dilation_rate"
  op: "Const"
  attr {
    key: "dtype"
    value {
      type: DT_INT32
    }
  }
  attr {
    key: "value"
    value {
      tensor {
        dtype: DT_INT32
        tensor_shape {
          dim {
            size: 2
          }
        }
        tensor_content: "\001\000\000\000\001\000\000\000"
      }
    }
  }
}
node {
  name: "MobilenetV2/expanded_conv_1/depthwise/depthwise"
  op: "DepthwiseConv2dNative"
  input: "MobilenetV2/expanded_conv_1/expansion_output"
  input: "MobilenetV2/expanded_conv_1/depthwise/depthwise_weights/read"
  attr {
    key: "T"
    value {
      type: DT_FLOAT
    }
  }
  attr {
    key: "data_format"
    value {
      s: "NHWC"
    }
  }
  attr {
    key: "dilations"
    value {
      list {
        i: 1
        i: 1
        i: 1
        i: 1
      }
    }
  }
  attr {
    key: "padding"
    value {
      s: "SAME"
    }
  }
  attr {
    key: "strides"
    value {
      list {
        i: 1
        i: 2
        i: 2
        i: 1
      }
    }
  }
}
node {
  name: "MobilenetV2/expanded_conv_1/depthwise/BatchNorm/gamma/Initializer/ones/shape_as_tensor"
  op: "Const"
  attr {
    key: "_class"
    value {
      list {
        s: "loc:@MobilenetV2/expanded_conv_1/depthwise/BatchNorm/gamma"
      }
    }
  }
  attr {
    key: "dtype"
    value {
      type: DT_INT32
    }
  }
  attr {
    key: "value"
    value {
      tensor {
        dtype: DT_INT32
        tensor_shape {
          dim {
            size: 1
          }
        }
        int_val: 96
      }
    }
  }
}
node {
  name: "MobilenetV2/expanded_conv_1/depthwise/BatchNorm/gamma/Initializer/ones/Const"
  op: "Const"
  attr {
    key: "_class"
    value {
      list {
        s: "loc:@MobilenetV2/expanded_conv_1/depthwise/BatchNorm/gamma"
      }
    }
  }
  attr {
    key: "dtype"
    value {
      type: DT_FLOAT
    }
  }
  attr {
    key: "value"
    value {
      tensor {
        dtype: DT_FLOAT
        tensor_shape {
        }
        float_val: 1.0
      }
    }
  }
}
node {
  name: "MobilenetV2/expanded_conv_1/depthwise/BatchNorm/gamma/Initializer/ones"
  op: "Fill"
  input: "MobilenetV2/expanded_conv_1/depthwise/BatchNorm/gamma/Initializer/ones/shape_as_tensor"
  input: "MobilenetV2/expanded_conv_1/depthwise/BatchNorm/gamma/Initializer/ones/Const"
  attr {
    key: "T"
    value {
      type: DT_FLOAT
    }
  }
  attr {
    key: "_class"
    value {
      list {
        s: "loc:@MobilenetV2/expanded_conv_1/depthwise/BatchNorm/gamma"
      }
    }
  }
  attr {
    key: "index_type"
    value {
      type: DT_INT32
    }
  }
}
node {
  name: "MobilenetV2/expanded_conv_1/depthwise/BatchNorm/gamma"
  op: "VariableV2"
  attr {
    key: "_class"
    value {
      list {
        s: "loc:@MobilenetV2/expanded_conv_1/depthwise/BatchNorm/gamma"
      }
    }
  }
  attr {
    key: "container"
    value {
      s: ""
    }
  }
  attr {
    key: "dtype"
    value {
      type: DT_FLOAT
    }
  }
  attr {
    key: "shape"
    value {
      shape {
        dim {
          size: 96
        }
      }
    }
  }
  attr {
    key: "shared_name"
    value {
      s: ""
    }
  }
}
node {
  name: "MobilenetV2/expanded_conv_1/depthwise/BatchNorm/gamma/Assign"
  op: "Assign"
  input: "MobilenetV2/expanded_conv_1/depthwise/BatchNorm/gamma"
  input: "MobilenetV2/expanded_conv_1/depthwise/BatchNorm/gamma/Initializer/ones"
  attr {
    key: "T"
    value {
      type: DT_FLOAT
    }
  }
  attr {
    key: "_class"
    value {
      list {
        s: "loc:@MobilenetV2/expanded_conv_1/depthwise/BatchNorm/gamma"
      }
    }
  }
  attr {
    key: "use_locking"
    value {
      b: true
    }
  }
  attr {
    key: "validate_shape"
    value {
      b: true
    }
  }
}
node {
  name: "MobilenetV2/expanded_conv_1/depthwise/BatchNorm/gamma/read"
  op: "Identity"
  input: "MobilenetV2/expanded_conv_1/depthwise/BatchNorm/gamma"
  attr {
    key: "T"
    value {
      type: DT_FLOAT
    }
  }
  attr {
    key: "_class"
    value {
      list {
        s: "loc:@MobilenetV2/expanded_conv_1/depthwise/BatchNorm/gamma"
      }
    }
  }
}
node {
  name: "MobilenetV2/expanded_conv_1/depthwise/BatchNorm/beta/Initializer/zeros/shape_as_tensor"
  op: "Const"
  attr {
    key: "_class"
    value {
      list {
        s: "loc:@MobilenetV2/expanded_conv_1/depthwise/BatchNorm/beta"
      }
    }
  }
  attr {
    key: "dtype"
    value {
      type: DT_INT32
    }
  }
  attr {
    key: "value"
    value {
      tensor {
        dtype: DT_INT32
        tensor_shape {
          dim {
            size: 1
          }
        }
        int_val: 96
      }
    }
  }
}
node {
  name: "MobilenetV2/expanded_conv_1/depthwise/BatchNorm/beta/Initializer/zeros/Const"
  op: "Const"
  attr {
    key: "_class"
    value {
      list {
        s: "loc:@MobilenetV2/expanded_conv_1/depthwise/BatchNorm/beta"
      }
    }
  }
  attr {
    key: "dtype"
    value {
      type: DT_FLOAT
    }
  }
  attr {
    key: "value"
    value {
      tensor {
        dtype: DT_FLOAT
        tensor_shape {
        }
        float_val: 0.0
      }
    }
  }
}
node {
  name: "MobilenetV2/expanded_conv_1/depthwise/BatchNorm/beta/Initializer/zeros"
  op: "Fill"
  input: "MobilenetV2/expanded_conv_1/depthwise/BatchNorm/beta/Initializer/zeros/shape_as_tensor"
  input: "MobilenetV2/expanded_conv_1/depthwise/BatchNorm/beta/Initializer/zeros/Const"
  attr {
    key: "T"
    value {
      type: DT_FLOAT
    }
  }
  attr {
    key: "_class"
    value {
      list {
        s: "loc:@MobilenetV2/expanded_conv_1/depthwise/BatchNorm/beta"
      }
    }
  }
  attr {
    key: "index_type"
    value {
      type: DT_INT32
    }
  }
}
node {
  name: "MobilenetV2/expanded_conv_1/depthwise/BatchNorm/beta"
  op: "VariableV2"
  attr {
    key: "_class"
    value {
      list {
        s: "loc:@MobilenetV2/expanded_conv_1/depthwise/BatchNorm/beta"
      }
    }
  }
  attr {
    key: "container"
    value {
      s: ""
    }
  }
  attr {
    key: "dtype"
    value {
      type: DT_FLOAT
    }
  }
  attr {
    key: "shape"
    value {
      shape {
        dim {
          size: 96
        }
      }
    }
  }
  attr {
    key: "shared_name"
    value {
      s: ""
    }
  }
}
node {
  name: "MobilenetV2/expanded_conv_1/depthwise/BatchNorm/beta/Assign"
  op: "Assign"
  input: "MobilenetV2/expanded_conv_1/depthwise/BatchNorm/beta"
  input: "MobilenetV2/expanded_conv_1/depthwise/BatchNorm/beta/Initializer/zeros"
  attr {
    key: "T"
    value {
      type: DT_FLOAT
    }
  }
  attr {
    key: "_class"
    value {
      list {
        s: "loc:@MobilenetV2/expanded_conv_1/depthwise/BatchNorm/beta"
      }
    }
  }
  attr {
    key: "use_locking"
    value {
      b: true
    }
  }
  attr {
    key: "validate_shape"
    value {
      b: true
    }
  }
}
node {
  name: "MobilenetV2/expanded_conv_1/depthwise/BatchNorm/beta/read"
  op: "Identity"
  input: "MobilenetV2/expanded_conv_1/depthwise/BatchNorm/beta"
  attr {
    key: "T"
    value {
      type: DT_FLOAT
    }
  }
  attr {
    key: "_class"
    value {
      list {
        s: "loc:@MobilenetV2/expanded_conv_1/depthwise/BatchNorm/beta"
      }
    }
  }
}
node {
  name: "MobilenetV2/expanded_conv_1/depthwise/BatchNorm/moving_mean/Initializer/zeros/shape_as_tensor"
  op: "Const"
  attr {
    key: "_class"
    value {
      list {
        s: "loc:@MobilenetV2/expanded_conv_1/depthwise/BatchNorm/moving_mean"
      }
    }
  }
  attr {
    key: "dtype"
    value {
      type: DT_INT32
    }
  }
  attr {
    key: "value"
    value {
      tensor {
        dtype: DT_INT32
        tensor_shape {
          dim {
            size: 1
          }
        }
        int_val: 96
      }
    }
  }
}
node {
  name: "MobilenetV2/expanded_conv_1/depthwise/BatchNorm/moving_mean/Initializer/zeros/Const"
  op: "Const"
  attr {
    key: "_class"
    value {
      list {
        s: "loc:@MobilenetV2/expanded_conv_1/depthwise/BatchNorm/moving_mean"
      }
    }
  }
  attr {
    key: "dtype"
    value {
      type: DT_FLOAT
    }
  }
  attr {
    key: "value"
    value {
      tensor {
        dtype: DT_FLOAT
        tensor_shape {
        }
        float_val: 0.0
      }
    }
  }
}
node {
  name: "MobilenetV2/expanded_conv_1/depthwise/BatchNorm/moving_mean/Initializer/zeros"
  op: "Fill"
  input: "MobilenetV2/expanded_conv_1/depthwise/BatchNorm/moving_mean/Initializer/zeros/shape_as_tensor"
  input: "MobilenetV2/expanded_conv_1/depthwise/BatchNorm/moving_mean/Initializer/zeros/Const"
  attr {
    key: "T"
    value {
      type: DT_FLOAT
    }
  }
  attr {
    key: "_class"
    value {
      list {
        s: "loc:@MobilenetV2/expanded_conv_1/depthwise/BatchNorm/moving_mean"
      }
    }
  }
  attr {
    key: "index_type"
    value {
      type: DT_INT32
    }
  }
}
node {
  name: "MobilenetV2/expanded_conv_1/depthwise/BatchNorm/moving_mean"
  op: "VariableV2"
  attr {
    key: "_class"
    value {
      list {
        s: "loc:@MobilenetV2/expanded_conv_1/depthwise/BatchNorm/moving_mean"
      }
    }
  }
  attr {
    key: "container"
    value {
      s: ""
    }
  }
  attr {
    key: "dtype"
    value {
      type: DT_FLOAT
    }
  }
  attr {
    key: "shape"
    value {
      shape {
        dim {
          size: 96
        }
      }
    }
  }
  attr {
    key: "shared_name"
    value {
      s: ""
    }
  }
}
node {
  name: "MobilenetV2/expanded_conv_1/depthwise/BatchNorm/moving_mean/Assign"
  op: "Assign"
  input: "MobilenetV2/expanded_conv_1/depthwise/BatchNorm/moving_mean"
  input: "MobilenetV2/expanded_conv_1/depthwise/BatchNorm/moving_mean/Initializer/zeros"
  attr {
    key: "T"
    value {
      type: DT_FLOAT
    }
  }
  attr {
    key: "_class"
    value {
      list {
        s: "loc:@MobilenetV2/expanded_conv_1/depthwise/BatchNorm/moving_mean"
      }
    }
  }
  attr {
    key: "use_locking"
    value {
      b: true
    }
  }
  attr {
    key: "validate_shape"
    value {
      b: true
    }
  }
}
node {
  name: "MobilenetV2/expanded_conv_1/depthwise/BatchNorm/moving_mean/read"
  op: "Identity"
  input: "MobilenetV2/expanded_conv_1/depthwise/BatchNorm/moving_mean"
  attr {
    key: "T"
    value {
      type: DT_FLOAT
    }
  }
  attr {
    key: "_class"
    value {
      list {
        s: "loc:@MobilenetV2/expanded_conv_1/depthwise/BatchNorm/moving_mean"
      }
    }
  }
}
node {
  name: "MobilenetV2/expanded_conv_1/depthwise/BatchNorm/moving_variance/Initializer/ones/shape_as_tensor"
  op: "Const"
  attr {
    key: "_class"
    value {
      list {
        s: "loc:@MobilenetV2/expanded_conv_1/depthwise/BatchNorm/moving_variance"
      }
    }
  }
  attr {
    key: "dtype"
    value {
      type: DT_INT32
    }
  }
  attr {
    key: "value"
    value {
      tensor {
        dtype: DT_INT32
        tensor_shape {
          dim {
            size: 1
          }
        }
        int_val: 96
      }
    }
  }
}
node {
  name: "MobilenetV2/expanded_conv_1/depthwise/BatchNorm/moving_variance/Initializer/ones/Const"
  op: "Const"
  attr {
    key: "_class"
    value {
      list {
        s: "loc:@MobilenetV2/expanded_conv_1/depthwise/BatchNorm/moving_variance"
      }
    }
  }
  attr {
    key: "dtype"
    value {
      type: DT_FLOAT
    }
  }
  attr {
    key: "value"
    value {
      tensor {
        dtype: DT_FLOAT
        tensor_shape {
        }
        float_val: 1.0
      }
    }
  }
}
node {
  name: "MobilenetV2/expanded_conv_1/depthwise/BatchNorm/moving_variance/Initializer/ones"
  op: "Fill"
  input: "MobilenetV2/expanded_conv_1/depthwise/BatchNorm/moving_variance/Initializer/ones/shape_as_tensor"
  input: "MobilenetV2/expanded_conv_1/depthwise/BatchNorm/moving_variance/Initializer/ones/Const"
  attr {
    key: "T"
    value {
      type: DT_FLOAT
    }
  }
  attr {
    key: "_class"
    value {
      list {
        s: "loc:@MobilenetV2/expanded_conv_1/depthwise/BatchNorm/moving_variance"
      }
    }
  }
  attr {
    key: "index_type"
    value {
      type: DT_INT32
    }
  }
}
node {
  name: "MobilenetV2/expanded_conv_1/depthwise/BatchNorm/moving_variance"
  op: "VariableV2"
  attr {
    key: "_class"
    value {
      list {
        s: "loc:@MobilenetV2/expanded_conv_1/depthwise/BatchNorm/moving_variance"
      }
    }
  }
  attr {
    key: "container"
    value {
      s: ""
    }
  }
  attr {
    key: "dtype"
    value {
      type: DT_FLOAT
    }
  }
  attr {
    key: "shape"
    value {
      shape {
        dim {
          size: 96
        }
      }
    }
  }
  attr {
    key: "shared_name"
    value {
      s: ""
    }
  }
}
node {
  name: "MobilenetV2/expanded_conv_1/depthwise/BatchNorm/moving_variance/Assign"
  op: "Assign"
  input: "MobilenetV2/expanded_conv_1/depthwise/BatchNorm/moving_variance"
  input: "MobilenetV2/expanded_conv_1/depthwise/BatchNorm/moving_variance/Initializer/ones"
  attr {
    key: "T"
    value {
      type: DT_FLOAT
    }
  }
  attr {
    key: "_class"
    value {
      list {
        s: "loc:@MobilenetV2/expanded_conv_1/depthwise/BatchNorm/moving_variance"
      }
    }
  }
  attr {
    key: "use_locking"
    value {
      b: true
    }
  }
  attr {
    key: "validate_shape"
    value {
      b: true
    }
  }
}
node {
  name: "MobilenetV2/expanded_conv_1/depthwise/BatchNorm/moving_variance/read"
  op: "Identity"
  input: "MobilenetV2/expanded_conv_1/depthwise/BatchNorm/moving_variance"
  attr {
    key: "T"
    value {
      type: DT_FLOAT
    }
  }
  attr {
    key: "_class"
    value {
      list {
        s: "loc:@MobilenetV2/expanded_conv_1/depthwise/BatchNorm/moving_variance"
      }
    }
  }
}
node {
  name: "MobilenetV2/expanded_conv_1/depthwise/BatchNorm/FusedBatchNorm"
  op: "FusedBatchNorm"
  input: "MobilenetV2/expanded_conv_1/depthwise/depthwise"
  input: "MobilenetV2/expanded_conv_1/depthwise/BatchNorm/gamma/read"
  input: "MobilenetV2/expanded_conv_1/depthwise/BatchNorm/beta/read"
  input: "MobilenetV2/expanded_conv_1/depthwise/BatchNorm/moving_mean/read"
  input: "MobilenetV2/expanded_conv_1/depthwise/BatchNorm/moving_variance/read"
  attr {
    key: "T"
    value {
      type: DT_FLOAT
    }
  }
  attr {
    key: "data_format"
    value {
      s: "NHWC"
    }
  }
  attr {
    key: "epsilon"
    value {
      f: 0.0010000000475
    }
  }
  attr {
    key: "is_training"
    value {
      b: false
    }
  }
}
node {
  name: "MobilenetV2/expanded_conv_1/depthwise/BatchNorm/Const"
  op: "Const"
  attr {
    key: "dtype"
    value {
      type: DT_FLOAT
    }
  }
  attr {
    key: "value"
    value {
      tensor {
        dtype: DT_FLOAT
        tensor_shape {
        }
        float_val: 0.999000012875
      }
    }
  }
}
node {
  name: "MobilenetV2/expanded_conv_1/depthwise/Relu6"
  op: "Relu6"
  input: "MobilenetV2/expanded_conv_1/depthwise/BatchNorm/FusedBatchNorm"
  attr {
    key: "T"
    value {
      type: DT_FLOAT
    }
  }
}
node {
  name: "MobilenetV2/expanded_conv_1/depthwise_output"
  op: "Identity"
  input: "MobilenetV2/expanded_conv_1/depthwise/Relu6"
  attr {
    key: "T"
    value {
      type: DT_FLOAT
    }
  }
}
node {
  name: "MobilenetV2/expanded_conv_1/project/weights/Initializer/random_uniform/shape"
  op: "Const"
  attr {
    key: "_class"
    value {
      list {
        s: "loc:@MobilenetV2/expanded_conv_1/project/weights"
      }
    }
  }
  attr {
    key: "dtype"
    value {
      type: DT_INT32
    }
  }
  attr {
    key: "value"
    value {
      tensor {
        dtype: DT_INT32
        tensor_shape {
          dim {
            size: 4
          }
        }
        tensor_content: "\001\000\000\000\001\000\000\000`\000\000\000\030\000\000\000"
      }
    }
  }
}
node {
  name: "MobilenetV2/expanded_conv_1/project/weights/Initializer/random_uniform/min"
  op: "Const"
  attr {
    key: "_class"
    value {
      list {
        s: "loc:@MobilenetV2/expanded_conv_1/project/weights"
      }
    }
  }
  attr {
    key: "dtype"
    value {
      type: DT_FLOAT
    }
  }
  attr {
    key: "value"
    value {
      tensor {
        dtype: DT_FLOAT
        tensor_shape {
        }
        float_val: -0.223606795073
      }
    }
  }
}
node {
  name: "MobilenetV2/expanded_conv_1/project/weights/Initializer/random_uniform/max"
  op: "Const"
  attr {
    key: "_class"
    value {
      list {
        s: "loc:@MobilenetV2/expanded_conv_1/project/weights"
      }
    }
  }
  attr {
    key: "dtype"
    value {
      type: DT_FLOAT
    }
  }
  attr {
    key: "value"
    value {
      tensor {
        dtype: DT_FLOAT
        tensor_shape {
        }
        float_val: 0.223606795073
      }
    }
  }
}
node {
  name: "MobilenetV2/expanded_conv_1/project/weights/Initializer/random_uniform/RandomUniform"
  op: "RandomUniform"
  input: "MobilenetV2/expanded_conv_1/project/weights/Initializer/random_uniform/shape"
  attr {
    key: "T"
    value {
      type: DT_INT32
    }
  }
  attr {
    key: "_class"
    value {
      list {
        s: "loc:@MobilenetV2/expanded_conv_1/project/weights"
      }
    }
  }
  attr {
    key: "dtype"
    value {
      type: DT_FLOAT
    }
  }
  attr {
    key: "seed"
    value {
      i: 0
    }
  }
  attr {
    key: "seed2"
    value {
      i: 0
    }
  }
}
node {
  name: "MobilenetV2/expanded_conv_1/project/weights/Initializer/random_uniform/sub"
  op: "Sub"
  input: "MobilenetV2/expanded_conv_1/project/weights/Initializer/random_uniform/max"
  input: "MobilenetV2/expanded_conv_1/project/weights/Initializer/random_uniform/min"
  attr {
    key: "T"
    value {
      type: DT_FLOAT
    }
  }
  attr {
    key: "_class"
    value {
      list {
        s: "loc:@MobilenetV2/expanded_conv_1/project/weights"
      }
    }
  }
}
node {
  name: "MobilenetV2/expanded_conv_1/project/weights/Initializer/random_uniform/mul"
  op: "Mul"
  input: "MobilenetV2/expanded_conv_1/project/weights/Initializer/random_uniform/RandomUniform"
  input: "MobilenetV2/expanded_conv_1/project/weights/Initializer/random_uniform/sub"
  attr {
    key: "T"
    value {
      type: DT_FLOAT
    }
  }
  attr {
    key: "_class"
    value {
      list {
        s: "loc:@MobilenetV2/expanded_conv_1/project/weights"
      }
    }
  }
}
node {
  name: "MobilenetV2/expanded_conv_1/project/weights/Initializer/random_uniform"
  op: "Add"
  input: "MobilenetV2/expanded_conv_1/project/weights/Initializer/random_uniform/mul"
  input: "MobilenetV2/expanded_conv_1/project/weights/Initializer/random_uniform/min"
  attr {
    key: "T"
    value {
      type: DT_FLOAT
    }
  }
  attr {
    key: "_class"
    value {
      list {
        s: "loc:@MobilenetV2/expanded_conv_1/project/weights"
      }
    }
  }
}
node {
  name: "MobilenetV2/expanded_conv_1/project/weights"
  op: "VariableV2"
  attr {
    key: "_class"
    value {
      list {
        s: "loc:@MobilenetV2/expanded_conv_1/project/weights"
      }
    }
  }
  attr {
    key: "container"
    value {
      s: ""
    }
  }
  attr {
    key: "dtype"
    value {
      type: DT_FLOAT
    }
  }
  attr {
    key: "shape"
    value {
      shape {
        dim {
          size: 1
        }
        dim {
          size: 1
        }
        dim {
          size: 96
        }
        dim {
          size: 24
        }
      }
    }
  }
  attr {
    key: "shared_name"
    value {
      s: ""
    }
  }
}
node {
  name: "MobilenetV2/expanded_conv_1/project/weights/Assign"
  op: "Assign"
  input: "MobilenetV2/expanded_conv_1/project/weights"
  input: "MobilenetV2/expanded_conv_1/project/weights/Initializer/random_uniform"
  attr {
    key: "T"
    value {
      type: DT_FLOAT
    }
  }
  attr {
    key: "_class"
    value {
      list {
        s: "loc:@MobilenetV2/expanded_conv_1/project/weights"
      }
    }
  }
  attr {
    key: "use_locking"
    value {
      b: true
    }
  }
  attr {
    key: "validate_shape"
    value {
      b: true
    }
  }
}
node {
  name: "MobilenetV2/expanded_conv_1/project/weights/read"
  op: "Identity"
  input: "MobilenetV2/expanded_conv_1/project/weights"
  attr {
    key: "T"
    value {
      type: DT_FLOAT
    }
  }
  attr {
    key: "_class"
    value {
      list {
        s: "loc:@MobilenetV2/expanded_conv_1/project/weights"
      }
    }
  }
}
node {
  name: "MobilenetV2/expanded_conv_1/project/dilation_rate"
  op: "Const"
  attr {
    key: "dtype"
    value {
      type: DT_INT32
    }
  }
  attr {
    key: "value"
    value {
      tensor {
        dtype: DT_INT32
        tensor_shape {
          dim {
            size: 2
          }
        }
        tensor_content: "\001\000\000\000\001\000\000\000"
      }
    }
  }
}
node {
  name: "MobilenetV2/expanded_conv_1/project/Conv2D"
  op: "Conv2D"
  input: "MobilenetV2/expanded_conv_1/depthwise_output"
  input: "MobilenetV2/expanded_conv_1/project/weights/read"
  attr {
    key: "T"
    value {
      type: DT_FLOAT
    }
  }
  attr {
    key: "data_format"
    value {
      s: "NHWC"
    }
  }
  attr {
    key: "dilations"
    value {
      list {
        i: 1
        i: 1
        i: 1
        i: 1
      }
    }
  }
  attr {
    key: "padding"
    value {
      s: "SAME"
    }
  }
  attr {
    key: "strides"
    value {
      list {
        i: 1
        i: 1
        i: 1
        i: 1
      }
    }
  }
  attr {
    key: "use_cudnn_on_gpu"
    value {
      b: true
    }
  }
}
node {
  name: "MobilenetV2/expanded_conv_1/project/BatchNorm/gamma/Initializer/ones/shape_as_tensor"
  op: "Const"
  attr {
    key: "_class"
    value {
      list {
        s: "loc:@MobilenetV2/expanded_conv_1/project/BatchNorm/gamma"
      }
    }
  }
  attr {
    key: "dtype"
    value {
      type: DT_INT32
    }
  }
  attr {
    key: "value"
    value {
      tensor {
        dtype: DT_INT32
        tensor_shape {
          dim {
            size: 1
          }
        }
        int_val: 24
      }
    }
  }
}
node {
  name: "MobilenetV2/expanded_conv_1/project/BatchNorm/gamma/Initializer/ones/Const"
  op: "Const"
  attr {
    key: "_class"
    value {
      list {
        s: "loc:@MobilenetV2/expanded_conv_1/project/BatchNorm/gamma"
      }
    }
  }
  attr {
    key: "dtype"
    value {
      type: DT_FLOAT
    }
  }
  attr {
    key: "value"
    value {
      tensor {
        dtype: DT_FLOAT
        tensor_shape {
        }
        float_val: 1.0
      }
    }
  }
}
node {
  name: "MobilenetV2/expanded_conv_1/project/BatchNorm/gamma/Initializer/ones"
  op: "Fill"
  input: "MobilenetV2/expanded_conv_1/project/BatchNorm/gamma/Initializer/ones/shape_as_tensor"
  input: "MobilenetV2/expanded_conv_1/project/BatchNorm/gamma/Initializer/ones/Const"
  attr {
    key: "T"
    value {
      type: DT_FLOAT
    }
  }
  attr {
    key: "_class"
    value {
      list {
        s: "loc:@MobilenetV2/expanded_conv_1/project/BatchNorm/gamma"
      }
    }
  }
  attr {
    key: "index_type"
    value {
      type: DT_INT32
    }
  }
}
node {
  name: "MobilenetV2/expanded_conv_1/project/BatchNorm/gamma"
  op: "VariableV2"
  attr {
    key: "_class"
    value {
      list {
        s: "loc:@MobilenetV2/expanded_conv_1/project/BatchNorm/gamma"
      }
    }
  }
  attr {
    key: "container"
    value {
      s: ""
    }
  }
  attr {
    key: "dtype"
    value {
      type: DT_FLOAT
    }
  }
  attr {
    key: "shape"
    value {
      shape {
        dim {
          size: 24
        }
      }
    }
  }
  attr {
    key: "shared_name"
    value {
      s: ""
    }
  }
}
node {
  name: "MobilenetV2/expanded_conv_1/project/BatchNorm/gamma/Assign"
  op: "Assign"
  input: "MobilenetV2/expanded_conv_1/project/BatchNorm/gamma"
  input: "MobilenetV2/expanded_conv_1/project/BatchNorm/gamma/Initializer/ones"
  attr {
    key: "T"
    value {
      type: DT_FLOAT
    }
  }
  attr {
    key: "_class"
    value {
      list {
        s: "loc:@MobilenetV2/expanded_conv_1/project/BatchNorm/gamma"
      }
    }
  }
  attr {
    key: "use_locking"
    value {
      b: true
    }
  }
  attr {
    key: "validate_shape"
    value {
      b: true
    }
  }
}
node {
  name: "MobilenetV2/expanded_conv_1/project/BatchNorm/gamma/read"
  op: "Identity"
  input: "MobilenetV2/expanded_conv_1/project/BatchNorm/gamma"
  attr {
    key: "T"
    value {
      type: DT_FLOAT
    }
  }
  attr {
    key: "_class"
    value {
      list {
        s: "loc:@MobilenetV2/expanded_conv_1/project/BatchNorm/gamma"
      }
    }
  }
}
node {
  name: "MobilenetV2/expanded_conv_1/project/BatchNorm/beta/Initializer/zeros/shape_as_tensor"
  op: "Const"
  attr {
    key: "_class"
    value {
      list {
        s: "loc:@MobilenetV2/expanded_conv_1/project/BatchNorm/beta"
      }
    }
  }
  attr {
    key: "dtype"
    value {
      type: DT_INT32
    }
  }
  attr {
    key: "value"
    value {
      tensor {
        dtype: DT_INT32
        tensor_shape {
          dim {
            size: 1
          }
        }
        int_val: 24
      }
    }
  }
}
node {
  name: "MobilenetV2/expanded_conv_1/project/BatchNorm/beta/Initializer/zeros/Const"
  op: "Const"
  attr {
    key: "_class"
    value {
      list {
        s: "loc:@MobilenetV2/expanded_conv_1/project/BatchNorm/beta"
      }
    }
  }
  attr {
    key: "dtype"
    value {
      type: DT_FLOAT
    }
  }
  attr {
    key: "value"
    value {
      tensor {
        dtype: DT_FLOAT
        tensor_shape {
        }
        float_val: 0.0
      }
    }
  }
}
node {
  name: "MobilenetV2/expanded_conv_1/project/BatchNorm/beta/Initializer/zeros"
  op: "Fill"
  input: "MobilenetV2/expanded_conv_1/project/BatchNorm/beta/Initializer/zeros/shape_as_tensor"
  input: "MobilenetV2/expanded_conv_1/project/BatchNorm/beta/Initializer/zeros/Const"
  attr {
    key: "T"
    value {
      type: DT_FLOAT
    }
  }
  attr {
    key: "_class"
    value {
      list {
        s: "loc:@MobilenetV2/expanded_conv_1/project/BatchNorm/beta"
      }
    }
  }
  attr {
    key: "index_type"
    value {
      type: DT_INT32
    }
  }
}
node {
  name: "MobilenetV2/expanded_conv_1/project/BatchNorm/beta"
  op: "VariableV2"
  attr {
    key: "_class"
    value {
      list {
        s: "loc:@MobilenetV2/expanded_conv_1/project/BatchNorm/beta"
      }
    }
  }
  attr {
    key: "container"
    value {
      s: ""
    }
  }
  attr {
    key: "dtype"
    value {
      type: DT_FLOAT
    }
  }
  attr {
    key: "shape"
    value {
      shape {
        dim {
          size: 24
        }
      }
    }
  }
  attr {
    key: "shared_name"
    value {
      s: ""
    }
  }
}
node {
  name: "MobilenetV2/expanded_conv_1/project/BatchNorm/beta/Assign"
  op: "Assign"
  input: "MobilenetV2/expanded_conv_1/project/BatchNorm/beta"
  input: "MobilenetV2/expanded_conv_1/project/BatchNorm/beta/Initializer/zeros"
  attr {
    key: "T"
    value {
      type: DT_FLOAT
    }
  }
  attr {
    key: "_class"
    value {
      list {
        s: "loc:@MobilenetV2/expanded_conv_1/project/BatchNorm/beta"
      }
    }
  }
  attr {
    key: "use_locking"
    value {
      b: true
    }
  }
  attr {
    key: "validate_shape"
    value {
      b: true
    }
  }
}
node {
  name: "MobilenetV2/expanded_conv_1/project/BatchNorm/beta/read"
  op: "Identity"
  input: "MobilenetV2/expanded_conv_1/project/BatchNorm/beta"
  attr {
    key: "T"
    value {
      type: DT_FLOAT
    }
  }
  attr {
    key: "_class"
    value {
      list {
        s: "loc:@MobilenetV2/expanded_conv_1/project/BatchNorm/beta"
      }
    }
  }
}
node {
  name: "MobilenetV2/expanded_conv_1/project/BatchNorm/moving_mean/Initializer/zeros/shape_as_tensor"
  op: "Const"
  attr {
    key: "_class"
    value {
      list {
        s: "loc:@MobilenetV2/expanded_conv_1/project/BatchNorm/moving_mean"
      }
    }
  }
  attr {
    key: "dtype"
    value {
      type: DT_INT32
    }
  }
  attr {
    key: "value"
    value {
      tensor {
        dtype: DT_INT32
        tensor_shape {
          dim {
            size: 1
          }
        }
        int_val: 24
      }
    }
  }
}
node {
  name: "MobilenetV2/expanded_conv_1/project/BatchNorm/moving_mean/Initializer/zeros/Const"
  op: "Const"
  attr {
    key: "_class"
    value {
      list {
        s: "loc:@MobilenetV2/expanded_conv_1/project/BatchNorm/moving_mean"
      }
    }
  }
  attr {
    key: "dtype"
    value {
      type: DT_FLOAT
    }
  }
  attr {
    key: "value"
    value {
      tensor {
        dtype: DT_FLOAT
        tensor_shape {
        }
        float_val: 0.0
      }
    }
  }
}
node {
  name: "MobilenetV2/expanded_conv_1/project/BatchNorm/moving_mean/Initializer/zeros"
  op: "Fill"
  input: "MobilenetV2/expanded_conv_1/project/BatchNorm/moving_mean/Initializer/zeros/shape_as_tensor"
  input: "MobilenetV2/expanded_conv_1/project/BatchNorm/moving_mean/Initializer/zeros/Const"
  attr {
    key: "T"
    value {
      type: DT_FLOAT
    }
  }
  attr {
    key: "_class"
    value {
      list {
        s: "loc:@MobilenetV2/expanded_conv_1/project/BatchNorm/moving_mean"
      }
    }
  }
  attr {
    key: "index_type"
    value {
      type: DT_INT32
    }
  }
}
node {
  name: "MobilenetV2/expanded_conv_1/project/BatchNorm/moving_mean"
  op: "VariableV2"
  attr {
    key: "_class"
    value {
      list {
        s: "loc:@MobilenetV2/expanded_conv_1/project/BatchNorm/moving_mean"
      }
    }
  }
  attr {
    key: "container"
    value {
      s: ""
    }
  }
  attr {
    key: "dtype"
    value {
      type: DT_FLOAT
    }
  }
  attr {
    key: "shape"
    value {
      shape {
        dim {
          size: 24
        }
      }
    }
  }
  attr {
    key: "shared_name"
    value {
      s: ""
    }
  }
}
node {
  name: "MobilenetV2/expanded_conv_1/project/BatchNorm/moving_mean/Assign"
  op: "Assign"
  input: "MobilenetV2/expanded_conv_1/project/BatchNorm/moving_mean"
  input: "MobilenetV2/expanded_conv_1/project/BatchNorm/moving_mean/Initializer/zeros"
  attr {
    key: "T"
    value {
      type: DT_FLOAT
    }
  }
  attr {
    key: "_class"
    value {
      list {
        s: "loc:@MobilenetV2/expanded_conv_1/project/BatchNorm/moving_mean"
      }
    }
  }
  attr {
    key: "use_locking"
    value {
      b: true
    }
  }
  attr {
    key: "validate_shape"
    value {
      b: true
    }
  }
}
node {
  name: "MobilenetV2/expanded_conv_1/project/BatchNorm/moving_mean/read"
  op: "Identity"
  input: "MobilenetV2/expanded_conv_1/project/BatchNorm/moving_mean"
  attr {
    key: "T"
    value {
      type: DT_FLOAT
    }
  }
  attr {
    key: "_class"
    value {
      list {
        s: "loc:@MobilenetV2/expanded_conv_1/project/BatchNorm/moving_mean"
      }
    }
  }
}
node {
  name: "MobilenetV2/expanded_conv_1/project/BatchNorm/moving_variance/Initializer/ones/shape_as_tensor"
  op: "Const"
  attr {
    key: "_class"
    value {
      list {
        s: "loc:@MobilenetV2/expanded_conv_1/project/BatchNorm/moving_variance"
      }
    }
  }
  attr {
    key: "dtype"
    value {
      type: DT_INT32
    }
  }
  attr {
    key: "value"
    value {
      tensor {
        dtype: DT_INT32
        tensor_shape {
          dim {
            size: 1
          }
        }
        int_val: 24
      }
    }
  }
}
node {
  name: "MobilenetV2/expanded_conv_1/project/BatchNorm/moving_variance/Initializer/ones/Const"
  op: "Const"
  attr {
    key: "_class"
    value {
      list {
        s: "loc:@MobilenetV2/expanded_conv_1/project/BatchNorm/moving_variance"
      }
    }
  }
  attr {
    key: "dtype"
    value {
      type: DT_FLOAT
    }
  }
  attr {
    key: "value"
    value {
      tensor {
        dtype: DT_FLOAT
        tensor_shape {
        }
        float_val: 1.0
      }
    }
  }
}
node {
  name: "MobilenetV2/expanded_conv_1/project/BatchNorm/moving_variance/Initializer/ones"
  op: "Fill"
  input: "MobilenetV2/expanded_conv_1/project/BatchNorm/moving_variance/Initializer/ones/shape_as_tensor"
  input: "MobilenetV2/expanded_conv_1/project/BatchNorm/moving_variance/Initializer/ones/Const"
  attr {
    key: "T"
    value {
      type: DT_FLOAT
    }
  }
  attr {
    key: "_class"
    value {
      list {
        s: "loc:@MobilenetV2/expanded_conv_1/project/BatchNorm/moving_variance"
      }
    }
  }
  attr {
    key: "index_type"
    value {
      type: DT_INT32
    }
  }
}
node {
  name: "MobilenetV2/expanded_conv_1/project/BatchNorm/moving_variance"
  op: "VariableV2"
  attr {
    key: "_class"
    value {
      list {
        s: "loc:@MobilenetV2/expanded_conv_1/project/BatchNorm/moving_variance"
      }
    }
  }
  attr {
    key: "container"
    value {
      s: ""
    }
  }
  attr {
    key: "dtype"
    value {
      type: DT_FLOAT
    }
  }
  attr {
    key: "shape"
    value {
      shape {
        dim {
          size: 24
        }
      }
    }
  }
  attr {
    key: "shared_name"
    value {
      s: ""
    }
  }
}
node {
  name: "MobilenetV2/expanded_conv_1/project/BatchNorm/moving_variance/Assign"
  op: "Assign"
  input: "MobilenetV2/expanded_conv_1/project/BatchNorm/moving_variance"
  input: "MobilenetV2/expanded_conv_1/project/BatchNorm/moving_variance/Initializer/ones"
  attr {
    key: "T"
    value {
      type: DT_FLOAT
    }
  }
  attr {
    key: "_class"
    value {
      list {
        s: "loc:@MobilenetV2/expanded_conv_1/project/BatchNorm/moving_variance"
      }
    }
  }
  attr {
    key: "use_locking"
    value {
      b: true
    }
  }
  attr {
    key: "validate_shape"
    value {
      b: true
    }
  }
}
node {
  name: "MobilenetV2/expanded_conv_1/project/BatchNorm/moving_variance/read"
  op: "Identity"
  input: "MobilenetV2/expanded_conv_1/project/BatchNorm/moving_variance"
  attr {
    key: "T"
    value {
      type: DT_FLOAT
    }
  }
  attr {
    key: "_class"
    value {
      list {
        s: "loc:@MobilenetV2/expanded_conv_1/project/BatchNorm/moving_variance"
      }
    }
  }
}
node {
  name: "MobilenetV2/expanded_conv_1/project/BatchNorm/FusedBatchNorm"
  op: "FusedBatchNorm"
  input: "MobilenetV2/expanded_conv_1/project/Conv2D"
  input: "MobilenetV2/expanded_conv_1/project/BatchNorm/gamma/read"
  input: "MobilenetV2/expanded_conv_1/project/BatchNorm/beta/read"
  input: "MobilenetV2/expanded_conv_1/project/BatchNorm/moving_mean/read"
  input: "MobilenetV2/expanded_conv_1/project/BatchNorm/moving_variance/read"
  attr {
    key: "T"
    value {
      type: DT_FLOAT
    }
  }
  attr {
    key: "data_format"
    value {
      s: "NHWC"
    }
  }
  attr {
    key: "epsilon"
    value {
      f: 0.0010000000475
    }
  }
  attr {
    key: "is_training"
    value {
      b: false
    }
  }
}
node {
  name: "MobilenetV2/expanded_conv_1/project/BatchNorm/Const"
  op: "Const"
  attr {
    key: "dtype"
    value {
      type: DT_FLOAT
    }
  }
  attr {
    key: "value"
    value {
      tensor {
        dtype: DT_FLOAT
        tensor_shape {
        }
        float_val: 0.999000012875
      }
    }
  }
}
node {
  name: "MobilenetV2/expanded_conv_1/project/Identity"
  op: "Identity"
  input: "MobilenetV2/expanded_conv_1/project/BatchNorm/FusedBatchNorm"
  attr {
    key: "T"
    value {
      type: DT_FLOAT
    }
  }
}
node {
  name: "MobilenetV2/expanded_conv_1/output"
  op: "Identity"
  input: "MobilenetV2/expanded_conv_1/project/Identity"
  attr {
    key: "T"
    value {
      type: DT_FLOAT
    }
  }
}
node {
  name: "MobilenetV2/expanded_conv_2/input"
  op: "Identity"
  input: "MobilenetV2/expanded_conv_1/output"
  attr {
    key: "T"
    value {
      type: DT_FLOAT
    }
  }
}
node {
  name: "MobilenetV2/expanded_conv_2/expand/weights/Initializer/random_uniform/shape"
  op: "Const"
  attr {
    key: "_class"
    value {
      list {
        s: "loc:@MobilenetV2/expanded_conv_2/expand/weights"
      }
    }
  }
  attr {
    key: "dtype"
    value {
      type: DT_INT32
    }
  }
  attr {
    key: "value"
    value {
      tensor {
        dtype: DT_INT32
        tensor_shape {
          dim {
            size: 4
          }
        }
        tensor_content: "\001\000\000\000\001\000\000\000\030\000\000\000\220\000\000\000"
      }
    }
  }
}
node {
  name: "MobilenetV2/expanded_conv_2/expand/weights/Initializer/random_uniform/min"
  op: "Const"
  attr {
    key: "_class"
    value {
      list {
        s: "loc:@MobilenetV2/expanded_conv_2/expand/weights"
      }
    }
  }
  attr {
    key: "dtype"
    value {
      type: DT_FLOAT
    }
  }
  attr {
    key: "value"
    value {
      tensor {
        dtype: DT_FLOAT
        tensor_shape {
        }
        float_val: -0.188982233405
      }
    }
  }
}
node {
  name: "MobilenetV2/expanded_conv_2/expand/weights/Initializer/random_uniform/max"
  op: "Const"
  attr {
    key: "_class"
    value {
      list {
        s: "loc:@MobilenetV2/expanded_conv_2/expand/weights"
      }
    }
  }
  attr {
    key: "dtype"
    value {
      type: DT_FLOAT
    }
  }
  attr {
    key: "value"
    value {
      tensor {
        dtype: DT_FLOAT
        tensor_shape {
        }
        float_val: 0.188982233405
      }
    }
  }
}
node {
  name: "MobilenetV2/expanded_conv_2/expand/weights/Initializer/random_uniform/RandomUniform"
  op: "RandomUniform"
  input: "MobilenetV2/expanded_conv_2/expand/weights/Initializer/random_uniform/shape"
  attr {
    key: "T"
    value {
      type: DT_INT32
    }
  }
  attr {
    key: "_class"
    value {
      list {
        s: "loc:@MobilenetV2/expanded_conv_2/expand/weights"
      }
    }
  }
  attr {
    key: "dtype"
    value {
      type: DT_FLOAT
    }
  }
  attr {
    key: "seed"
    value {
      i: 0
    }
  }
  attr {
    key: "seed2"
    value {
      i: 0
    }
  }
}
node {
  name: "MobilenetV2/expanded_conv_2/expand/weights/Initializer/random_uniform/sub"
  op: "Sub"
  input: "MobilenetV2/expanded_conv_2/expand/weights/Initializer/random_uniform/max"
  input: "MobilenetV2/expanded_conv_2/expand/weights/Initializer/random_uniform/min"
  attr {
    key: "T"
    value {
      type: DT_FLOAT
    }
  }
  attr {
    key: "_class"
    value {
      list {
        s: "loc:@MobilenetV2/expanded_conv_2/expand/weights"
      }
    }
  }
}
node {
  name: "MobilenetV2/expanded_conv_2/expand/weights/Initializer/random_uniform/mul"
  op: "Mul"
  input: "MobilenetV2/expanded_conv_2/expand/weights/Initializer/random_uniform/RandomUniform"
  input: "MobilenetV2/expanded_conv_2/expand/weights/Initializer/random_uniform/sub"
  attr {
    key: "T"
    value {
      type: DT_FLOAT
    }
  }
  attr {
    key: "_class"
    value {
      list {
        s: "loc:@MobilenetV2/expanded_conv_2/expand/weights"
      }
    }
  }
}
node {
  name: "MobilenetV2/expanded_conv_2/expand/weights/Initializer/random_uniform"
  op: "Add"
  input: "MobilenetV2/expanded_conv_2/expand/weights/Initializer/random_uniform/mul"
  input: "MobilenetV2/expanded_conv_2/expand/weights/Initializer/random_uniform/min"
  attr {
    key: "T"
    value {
      type: DT_FLOAT
    }
  }
  attr {
    key: "_class"
    value {
      list {
        s: "loc:@MobilenetV2/expanded_conv_2/expand/weights"
      }
    }
  }
}
node {
  name: "MobilenetV2/expanded_conv_2/expand/weights"
  op: "VariableV2"
  attr {
    key: "_class"
    value {
      list {
        s: "loc:@MobilenetV2/expanded_conv_2/expand/weights"
      }
    }
  }
  attr {
    key: "container"
    value {
      s: ""
    }
  }
  attr {
    key: "dtype"
    value {
      type: DT_FLOAT
    }
  }
  attr {
    key: "shape"
    value {
      shape {
        dim {
          size: 1
        }
        dim {
          size: 1
        }
        dim {
          size: 24
        }
        dim {
          size: 144
        }
      }
    }
  }
  attr {
    key: "shared_name"
    value {
      s: ""
    }
  }
}
node {
  name: "MobilenetV2/expanded_conv_2/expand/weights/Assign"
  op: "Assign"
  input: "MobilenetV2/expanded_conv_2/expand/weights"
  input: "MobilenetV2/expanded_conv_2/expand/weights/Initializer/random_uniform"
  attr {
    key: "T"
    value {
      type: DT_FLOAT
    }
  }
  attr {
    key: "_class"
    value {
      list {
        s: "loc:@MobilenetV2/expanded_conv_2/expand/weights"
      }
    }
  }
  attr {
    key: "use_locking"
    value {
      b: true
    }
  }
  attr {
    key: "validate_shape"
    value {
      b: true
    }
  }
}
node {
  name: "MobilenetV2/expanded_conv_2/expand/weights/read"
  op: "Identity"
  input: "MobilenetV2/expanded_conv_2/expand/weights"
  attr {
    key: "T"
    value {
      type: DT_FLOAT
    }
  }
  attr {
    key: "_class"
    value {
      list {
        s: "loc:@MobilenetV2/expanded_conv_2/expand/weights"
      }
    }
  }
}
node {
  name: "MobilenetV2/expanded_conv_2/expand/dilation_rate"
  op: "Const"
  attr {
    key: "dtype"
    value {
      type: DT_INT32
    }
  }
  attr {
    key: "value"
    value {
      tensor {
        dtype: DT_INT32
        tensor_shape {
          dim {
            size: 2
          }
        }
        tensor_content: "\001\000\000\000\001\000\000\000"
      }
    }
  }
}
node {
  name: "MobilenetV2/expanded_conv_2/expand/Conv2D"
  op: "Conv2D"
  input: "MobilenetV2/expanded_conv_2/input"
  input: "MobilenetV2/expanded_conv_2/expand/weights/read"
  attr {
    key: "T"
    value {
      type: DT_FLOAT
    }
  }
  attr {
    key: "data_format"
    value {
      s: "NHWC"
    }
  }
  attr {
    key: "dilations"
    value {
      list {
        i: 1
        i: 1
        i: 1
        i: 1
      }
    }
  }
  attr {
    key: "padding"
    value {
      s: "SAME"
    }
  }
  attr {
    key: "strides"
    value {
      list {
        i: 1
        i: 1
        i: 1
        i: 1
      }
    }
  }
  attr {
    key: "use_cudnn_on_gpu"
    value {
      b: true
    }
  }
}
node {
  name: "MobilenetV2/expanded_conv_2/expand/BatchNorm/gamma/Initializer/ones/shape_as_tensor"
  op: "Const"
  attr {
    key: "_class"
    value {
      list {
        s: "loc:@MobilenetV2/expanded_conv_2/expand/BatchNorm/gamma"
      }
    }
  }
  attr {
    key: "dtype"
    value {
      type: DT_INT32
    }
  }
  attr {
    key: "value"
    value {
      tensor {
        dtype: DT_INT32
        tensor_shape {
          dim {
            size: 1
          }
        }
        int_val: 144
      }
    }
  }
}
node {
  name: "MobilenetV2/expanded_conv_2/expand/BatchNorm/gamma/Initializer/ones/Const"
  op: "Const"
  attr {
    key: "_class"
    value {
      list {
        s: "loc:@MobilenetV2/expanded_conv_2/expand/BatchNorm/gamma"
      }
    }
  }
  attr {
    key: "dtype"
    value {
      type: DT_FLOAT
    }
  }
  attr {
    key: "value"
    value {
      tensor {
        dtype: DT_FLOAT
        tensor_shape {
        }
        float_val: 1.0
      }
    }
  }
}
node {
  name: "MobilenetV2/expanded_conv_2/expand/BatchNorm/gamma/Initializer/ones"
  op: "Fill"
  input: "MobilenetV2/expanded_conv_2/expand/BatchNorm/gamma/Initializer/ones/shape_as_tensor"
  input: "MobilenetV2/expanded_conv_2/expand/BatchNorm/gamma/Initializer/ones/Const"
  attr {
    key: "T"
    value {
      type: DT_FLOAT
    }
  }
  attr {
    key: "_class"
    value {
      list {
        s: "loc:@MobilenetV2/expanded_conv_2/expand/BatchNorm/gamma"
      }
    }
  }
  attr {
    key: "index_type"
    value {
      type: DT_INT32
    }
  }
}
node {
  name: "MobilenetV2/expanded_conv_2/expand/BatchNorm/gamma"
  op: "VariableV2"
  attr {
    key: "_class"
    value {
      list {
        s: "loc:@MobilenetV2/expanded_conv_2/expand/BatchNorm/gamma"
      }
    }
  }
  attr {
    key: "container"
    value {
      s: ""
    }
  }
  attr {
    key: "dtype"
    value {
      type: DT_FLOAT
    }
  }
  attr {
    key: "shape"
    value {
      shape {
        dim {
          size: 144
        }
      }
    }
  }
  attr {
    key: "shared_name"
    value {
      s: ""
    }
  }
}
node {
  name: "MobilenetV2/expanded_conv_2/expand/BatchNorm/gamma/Assign"
  op: "Assign"
  input: "MobilenetV2/expanded_conv_2/expand/BatchNorm/gamma"
  input: "MobilenetV2/expanded_conv_2/expand/BatchNorm/gamma/Initializer/ones"
  attr {
    key: "T"
    value {
      type: DT_FLOAT
    }
  }
  attr {
    key: "_class"
    value {
      list {
        s: "loc:@MobilenetV2/expanded_conv_2/expand/BatchNorm/gamma"
      }
    }
  }
  attr {
    key: "use_locking"
    value {
      b: true
    }
  }
  attr {
    key: "validate_shape"
    value {
      b: true
    }
  }
}
node {
  name: "MobilenetV2/expanded_conv_2/expand/BatchNorm/gamma/read"
  op: "Identity"
  input: "MobilenetV2/expanded_conv_2/expand/BatchNorm/gamma"
  attr {
    key: "T"
    value {
      type: DT_FLOAT
    }
  }
  attr {
    key: "_class"
    value {
      list {
        s: "loc:@MobilenetV2/expanded_conv_2/expand/BatchNorm/gamma"
      }
    }
  }
}
node {
  name: "MobilenetV2/expanded_conv_2/expand/BatchNorm/beta/Initializer/zeros/shape_as_tensor"
  op: "Const"
  attr {
    key: "_class"
    value {
      list {
        s: "loc:@MobilenetV2/expanded_conv_2/expand/BatchNorm/beta"
      }
    }
  }
  attr {
    key: "dtype"
    value {
      type: DT_INT32
    }
  }
  attr {
    key: "value"
    value {
      tensor {
        dtype: DT_INT32
        tensor_shape {
          dim {
            size: 1
          }
        }
        int_val: 144
      }
    }
  }
}
node {
  name: "MobilenetV2/expanded_conv_2/expand/BatchNorm/beta/Initializer/zeros/Const"
  op: "Const"
  attr {
    key: "_class"
    value {
      list {
        s: "loc:@MobilenetV2/expanded_conv_2/expand/BatchNorm/beta"
      }
    }
  }
  attr {
    key: "dtype"
    value {
      type: DT_FLOAT
    }
  }
  attr {
    key: "value"
    value {
      tensor {
        dtype: DT_FLOAT
        tensor_shape {
        }
        float_val: 0.0
      }
    }
  }
}
node {
  name: "MobilenetV2/expanded_conv_2/expand/BatchNorm/beta/Initializer/zeros"
  op: "Fill"
  input: "MobilenetV2/expanded_conv_2/expand/BatchNorm/beta/Initializer/zeros/shape_as_tensor"
  input: "MobilenetV2/expanded_conv_2/expand/BatchNorm/beta/Initializer/zeros/Const"
  attr {
    key: "T"
    value {
      type: DT_FLOAT
    }
  }
  attr {
    key: "_class"
    value {
      list {
        s: "loc:@MobilenetV2/expanded_conv_2/expand/BatchNorm/beta"
      }
    }
  }
  attr {
    key: "index_type"
    value {
      type: DT_INT32
    }
  }
}
node {
  name: "MobilenetV2/expanded_conv_2/expand/BatchNorm/beta"
  op: "VariableV2"
  attr {
    key: "_class"
    value {
      list {
        s: "loc:@MobilenetV2/expanded_conv_2/expand/BatchNorm/beta"
      }
    }
  }
  attr {
    key: "container"
    value {
      s: ""
    }
  }
  attr {
    key: "dtype"
    value {
      type: DT_FLOAT
    }
  }
  attr {
    key: "shape"
    value {
      shape {
        dim {
          size: 144
        }
      }
    }
  }
  attr {
    key: "shared_name"
    value {
      s: ""
    }
  }
}
node {
  name: "MobilenetV2/expanded_conv_2/expand/BatchNorm/beta/Assign"
  op: "Assign"
  input: "MobilenetV2/expanded_conv_2/expand/BatchNorm/beta"
  input: "MobilenetV2/expanded_conv_2/expand/BatchNorm/beta/Initializer/zeros"
  attr {
    key: "T"
    value {
      type: DT_FLOAT
    }
  }
  attr {
    key: "_class"
    value {
      list {
        s: "loc:@MobilenetV2/expanded_conv_2/expand/BatchNorm/beta"
      }
    }
  }
  attr {
    key: "use_locking"
    value {
      b: true
    }
  }
  attr {
    key: "validate_shape"
    value {
      b: true
    }
  }
}
node {
  name: "MobilenetV2/expanded_conv_2/expand/BatchNorm/beta/read"
  op: "Identity"
  input: "MobilenetV2/expanded_conv_2/expand/BatchNorm/beta"
  attr {
    key: "T"
    value {
      type: DT_FLOAT
    }
  }
  attr {
    key: "_class"
    value {
      list {
        s: "loc:@MobilenetV2/expanded_conv_2/expand/BatchNorm/beta"
      }
    }
  }
}
node {
  name: "MobilenetV2/expanded_conv_2/expand/BatchNorm/moving_mean/Initializer/zeros/shape_as_tensor"
  op: "Const"
  attr {
    key: "_class"
    value {
      list {
        s: "loc:@MobilenetV2/expanded_conv_2/expand/BatchNorm/moving_mean"
      }
    }
  }
  attr {
    key: "dtype"
    value {
      type: DT_INT32
    }
  }
  attr {
    key: "value"
    value {
      tensor {
        dtype: DT_INT32
        tensor_shape {
          dim {
            size: 1
          }
        }
        int_val: 144
      }
    }
  }
}
node {
  name: "MobilenetV2/expanded_conv_2/expand/BatchNorm/moving_mean/Initializer/zeros/Const"
  op: "Const"
  attr {
    key: "_class"
    value {
      list {
        s: "loc:@MobilenetV2/expanded_conv_2/expand/BatchNorm/moving_mean"
      }
    }
  }
  attr {
    key: "dtype"
    value {
      type: DT_FLOAT
    }
  }
  attr {
    key: "value"
    value {
      tensor {
        dtype: DT_FLOAT
        tensor_shape {
        }
        float_val: 0.0
      }
    }
  }
}
node {
  name: "MobilenetV2/expanded_conv_2/expand/BatchNorm/moving_mean/Initializer/zeros"
  op: "Fill"
  input: "MobilenetV2/expanded_conv_2/expand/BatchNorm/moving_mean/Initializer/zeros/shape_as_tensor"
  input: "MobilenetV2/expanded_conv_2/expand/BatchNorm/moving_mean/Initializer/zeros/Const"
  attr {
    key: "T"
    value {
      type: DT_FLOAT
    }
  }
  attr {
    key: "_class"
    value {
      list {
        s: "loc:@MobilenetV2/expanded_conv_2/expand/BatchNorm/moving_mean"
      }
    }
  }
  attr {
    key: "index_type"
    value {
      type: DT_INT32
    }
  }
}
node {
  name: "MobilenetV2/expanded_conv_2/expand/BatchNorm/moving_mean"
  op: "VariableV2"
  attr {
    key: "_class"
    value {
      list {
        s: "loc:@MobilenetV2/expanded_conv_2/expand/BatchNorm/moving_mean"
      }
    }
  }
  attr {
    key: "container"
    value {
      s: ""
    }
  }
  attr {
    key: "dtype"
    value {
      type: DT_FLOAT
    }
  }
  attr {
    key: "shape"
    value {
      shape {
        dim {
          size: 144
        }
      }
    }
  }
  attr {
    key: "shared_name"
    value {
      s: ""
    }
  }
}
node {
  name: "MobilenetV2/expanded_conv_2/expand/BatchNorm/moving_mean/Assign"
  op: "Assign"
  input: "MobilenetV2/expanded_conv_2/expand/BatchNorm/moving_mean"
  input: "MobilenetV2/expanded_conv_2/expand/BatchNorm/moving_mean/Initializer/zeros"
  attr {
    key: "T"
    value {
      type: DT_FLOAT
    }
  }
  attr {
    key: "_class"
    value {
      list {
        s: "loc:@MobilenetV2/expanded_conv_2/expand/BatchNorm/moving_mean"
      }
    }
  }
  attr {
    key: "use_locking"
    value {
      b: true
    }
  }
  attr {
    key: "validate_shape"
    value {
      b: true
    }
  }
}
node {
  name: "MobilenetV2/expanded_conv_2/expand/BatchNorm/moving_mean/read"
  op: "Identity"
  input: "MobilenetV2/expanded_conv_2/expand/BatchNorm/moving_mean"
  attr {
    key: "T"
    value {
      type: DT_FLOAT
    }
  }
  attr {
    key: "_class"
    value {
      list {
        s: "loc:@MobilenetV2/expanded_conv_2/expand/BatchNorm/moving_mean"
      }
    }
  }
}
node {
  name: "MobilenetV2/expanded_conv_2/expand/BatchNorm/moving_variance/Initializer/ones/shape_as_tensor"
  op: "Const"
  attr {
    key: "_class"
    value {
      list {
        s: "loc:@MobilenetV2/expanded_conv_2/expand/BatchNorm/moving_variance"
      }
    }
  }
  attr {
    key: "dtype"
    value {
      type: DT_INT32
    }
  }
  attr {
    key: "value"
    value {
      tensor {
        dtype: DT_INT32
        tensor_shape {
          dim {
            size: 1
          }
        }
        int_val: 144
      }
    }
  }
}
node {
  name: "MobilenetV2/expanded_conv_2/expand/BatchNorm/moving_variance/Initializer/ones/Const"
  op: "Const"
  attr {
    key: "_class"
    value {
      list {
        s: "loc:@MobilenetV2/expanded_conv_2/expand/BatchNorm/moving_variance"
      }
    }
  }
  attr {
    key: "dtype"
    value {
      type: DT_FLOAT
    }
  }
  attr {
    key: "value"
    value {
      tensor {
        dtype: DT_FLOAT
        tensor_shape {
        }
        float_val: 1.0
      }
    }
  }
}
node {
  name: "MobilenetV2/expanded_conv_2/expand/BatchNorm/moving_variance/Initializer/ones"
  op: "Fill"
  input: "MobilenetV2/expanded_conv_2/expand/BatchNorm/moving_variance/Initializer/ones/shape_as_tensor"
  input: "MobilenetV2/expanded_conv_2/expand/BatchNorm/moving_variance/Initializer/ones/Const"
  attr {
    key: "T"
    value {
      type: DT_FLOAT
    }
  }
  attr {
    key: "_class"
    value {
      list {
        s: "loc:@MobilenetV2/expanded_conv_2/expand/BatchNorm/moving_variance"
      }
    }
  }
  attr {
    key: "index_type"
    value {
      type: DT_INT32
    }
  }
}
node {
  name: "MobilenetV2/expanded_conv_2/expand/BatchNorm/moving_variance"
  op: "VariableV2"
  attr {
    key: "_class"
    value {
      list {
        s: "loc:@MobilenetV2/expanded_conv_2/expand/BatchNorm/moving_variance"
      }
    }
  }
  attr {
    key: "container"
    value {
      s: ""
    }
  }
  attr {
    key: "dtype"
    value {
      type: DT_FLOAT
    }
  }
  attr {
    key: "shape"
    value {
      shape {
        dim {
          size: 144
        }
      }
    }
  }
  attr {
    key: "shared_name"
    value {
      s: ""
    }
  }
}
node {
  name: "MobilenetV2/expanded_conv_2/expand/BatchNorm/moving_variance/Assign"
  op: "Assign"
  input: "MobilenetV2/expanded_conv_2/expand/BatchNorm/moving_variance"
  input: "MobilenetV2/expanded_conv_2/expand/BatchNorm/moving_variance/Initializer/ones"
  attr {
    key: "T"
    value {
      type: DT_FLOAT
    }
  }
  attr {
    key: "_class"
    value {
      list {
        s: "loc:@MobilenetV2/expanded_conv_2/expand/BatchNorm/moving_variance"
      }
    }
  }
  attr {
    key: "use_locking"
    value {
      b: true
    }
  }
  attr {
    key: "validate_shape"
    value {
      b: true
    }
  }
}
node {
  name: "MobilenetV2/expanded_conv_2/expand/BatchNorm/moving_variance/read"
  op: "Identity"
  input: "MobilenetV2/expanded_conv_2/expand/BatchNorm/moving_variance"
  attr {
    key: "T"
    value {
      type: DT_FLOAT
    }
  }
  attr {
    key: "_class"
    value {
      list {
        s: "loc:@MobilenetV2/expanded_conv_2/expand/BatchNorm/moving_variance"
      }
    }
  }
}
node {
  name: "MobilenetV2/expanded_conv_2/expand/BatchNorm/FusedBatchNorm"
  op: "FusedBatchNorm"
  input: "MobilenetV2/expanded_conv_2/expand/Conv2D"
  input: "MobilenetV2/expanded_conv_2/expand/BatchNorm/gamma/read"
  input: "MobilenetV2/expanded_conv_2/expand/BatchNorm/beta/read"
  input: "MobilenetV2/expanded_conv_2/expand/BatchNorm/moving_mean/read"
  input: "MobilenetV2/expanded_conv_2/expand/BatchNorm/moving_variance/read"
  attr {
    key: "T"
    value {
      type: DT_FLOAT
    }
  }
  attr {
    key: "data_format"
    value {
      s: "NHWC"
    }
  }
  attr {
    key: "epsilon"
    value {
      f: 0.0010000000475
    }
  }
  attr {
    key: "is_training"
    value {
      b: false
    }
  }
}
node {
  name: "MobilenetV2/expanded_conv_2/expand/BatchNorm/Const"
  op: "Const"
  attr {
    key: "dtype"
    value {
      type: DT_FLOAT
    }
  }
  attr {
    key: "value"
    value {
      tensor {
        dtype: DT_FLOAT
        tensor_shape {
        }
        float_val: 0.999000012875
      }
    }
  }
}
node {
  name: "MobilenetV2/expanded_conv_2/expand/Relu6"
  op: "Relu6"
  input: "MobilenetV2/expanded_conv_2/expand/BatchNorm/FusedBatchNorm"
  attr {
    key: "T"
    value {
      type: DT_FLOAT
    }
  }
}
node {
  name: "MobilenetV2/expanded_conv_2/expansion_output"
  op: "Identity"
  input: "MobilenetV2/expanded_conv_2/expand/Relu6"
  attr {
    key: "T"
    value {
      type: DT_FLOAT
    }
  }
}
node {
  name: "MobilenetV2/expanded_conv_2/depthwise/depthwise_weights/Initializer/random_uniform/shape"
  op: "Const"
  attr {
    key: "_class"
    value {
      list {
        s: "loc:@MobilenetV2/expanded_conv_2/depthwise/depthwise_weights"
      }
    }
  }
  attr {
    key: "dtype"
    value {
      type: DT_INT32
    }
  }
  attr {
    key: "value"
    value {
      tensor {
        dtype: DT_INT32
        tensor_shape {
          dim {
            size: 4
          }
        }
        tensor_content: "\003\000\000\000\003\000\000\000\220\000\000\000\001\000\000\000"
      }
    }
  }
}
node {
  name: "MobilenetV2/expanded_conv_2/depthwise/depthwise_weights/Initializer/random_uniform/min"
  op: "Const"
  attr {
    key: "_class"
    value {
      list {
        s: "loc:@MobilenetV2/expanded_conv_2/depthwise/depthwise_weights"
      }
    }
  }
  attr {
    key: "dtype"
    value {
      type: DT_FLOAT
    }
  }
  attr {
    key: "value"
    value {
      tensor {
        dtype: DT_FLOAT
        tensor_shape {
        }
        float_val: -0.0678063482046
      }
    }
  }
}
node {
  name: "MobilenetV2/expanded_conv_2/depthwise/depthwise_weights/Initializer/random_uniform/max"
  op: "Const"
  attr {
    key: "_class"
    value {
      list {
        s: "loc:@MobilenetV2/expanded_conv_2/depthwise/depthwise_weights"
      }
    }
  }
  attr {
    key: "dtype"
    value {
      type: DT_FLOAT
    }
  }
  attr {
    key: "value"
    value {
      tensor {
        dtype: DT_FLOAT
        tensor_shape {
        }
        float_val: 0.0678063482046
      }
    }
  }
}
node {
  name: "MobilenetV2/expanded_conv_2/depthwise/depthwise_weights/Initializer/random_uniform/RandomUniform"
  op: "RandomUniform"
  input: "MobilenetV2/expanded_conv_2/depthwise/depthwise_weights/Initializer/random_uniform/shape"
  attr {
    key: "T"
    value {
      type: DT_INT32
    }
  }
  attr {
    key: "_class"
    value {
      list {
        s: "loc:@MobilenetV2/expanded_conv_2/depthwise/depthwise_weights"
      }
    }
  }
  attr {
    key: "dtype"
    value {
      type: DT_FLOAT
    }
  }
  attr {
    key: "seed"
    value {
      i: 0
    }
  }
  attr {
    key: "seed2"
    value {
      i: 0
    }
  }
}
node {
  name: "MobilenetV2/expanded_conv_2/depthwise/depthwise_weights/Initializer/random_uniform/sub"
  op: "Sub"
  input: "MobilenetV2/expanded_conv_2/depthwise/depthwise_weights/Initializer/random_uniform/max"
  input: "MobilenetV2/expanded_conv_2/depthwise/depthwise_weights/Initializer/random_uniform/min"
  attr {
    key: "T"
    value {
      type: DT_FLOAT
    }
  }
  attr {
    key: "_class"
    value {
      list {
        s: "loc:@MobilenetV2/expanded_conv_2/depthwise/depthwise_weights"
      }
    }
  }
}
node {
  name: "MobilenetV2/expanded_conv_2/depthwise/depthwise_weights/Initializer/random_uniform/mul"
  op: "Mul"
  input: "MobilenetV2/expanded_conv_2/depthwise/depthwise_weights/Initializer/random_uniform/RandomUniform"
  input: "MobilenetV2/expanded_conv_2/depthwise/depthwise_weights/Initializer/random_uniform/sub"
  attr {
    key: "T"
    value {
      type: DT_FLOAT
    }
  }
  attr {
    key: "_class"
    value {
      list {
        s: "loc:@MobilenetV2/expanded_conv_2/depthwise/depthwise_weights"
      }
    }
  }
}
node {
  name: "MobilenetV2/expanded_conv_2/depthwise/depthwise_weights/Initializer/random_uniform"
  op: "Add"
  input: "MobilenetV2/expanded_conv_2/depthwise/depthwise_weights/Initializer/random_uniform/mul"
  input: "MobilenetV2/expanded_conv_2/depthwise/depthwise_weights/Initializer/random_uniform/min"
  attr {
    key: "T"
    value {
      type: DT_FLOAT
    }
  }
  attr {
    key: "_class"
    value {
      list {
        s: "loc:@MobilenetV2/expanded_conv_2/depthwise/depthwise_weights"
      }
    }
  }
}
node {
  name: "MobilenetV2/expanded_conv_2/depthwise/depthwise_weights"
  op: "VariableV2"
  attr {
    key: "_class"
    value {
      list {
        s: "loc:@MobilenetV2/expanded_conv_2/depthwise/depthwise_weights"
      }
    }
  }
  attr {
    key: "container"
    value {
      s: ""
    }
  }
  attr {
    key: "dtype"
    value {
      type: DT_FLOAT
    }
  }
  attr {
    key: "shape"
    value {
      shape {
        dim {
          size: 3
        }
        dim {
          size: 3
        }
        dim {
          size: 144
        }
        dim {
          size: 1
        }
      }
    }
  }
  attr {
    key: "shared_name"
    value {
      s: ""
    }
  }
}
node {
  name: "MobilenetV2/expanded_conv_2/depthwise/depthwise_weights/Assign"
  op: "Assign"
  input: "MobilenetV2/expanded_conv_2/depthwise/depthwise_weights"
  input: "MobilenetV2/expanded_conv_2/depthwise/depthwise_weights/Initializer/random_uniform"
  attr {
    key: "T"
    value {
      type: DT_FLOAT
    }
  }
  attr {
    key: "_class"
    value {
      list {
        s: "loc:@MobilenetV2/expanded_conv_2/depthwise/depthwise_weights"
      }
    }
  }
  attr {
    key: "use_locking"
    value {
      b: true
    }
  }
  attr {
    key: "validate_shape"
    value {
      b: true
    }
  }
}
node {
  name: "MobilenetV2/expanded_conv_2/depthwise/depthwise_weights/read"
  op: "Identity"
  input: "MobilenetV2/expanded_conv_2/depthwise/depthwise_weights"
  attr {
    key: "T"
    value {
      type: DT_FLOAT
    }
  }
  attr {
    key: "_class"
    value {
      list {
        s: "loc:@MobilenetV2/expanded_conv_2/depthwise/depthwise_weights"
      }
    }
  }
}
node {
  name: "MobilenetV2/expanded_conv_2/depthwise/depthwise/Shape"
  op: "Const"
  attr {
    key: "dtype"
    value {
      type: DT_INT32
    }
  }
  attr {
    key: "value"
    value {
      tensor {
        dtype: DT_INT32
        tensor_shape {
          dim {
            size: 4
          }
        }
        tensor_content: "\003\000\000\000\003\000\000\000\220\000\000\000\001\000\000\000"
      }
    }
  }
}
node {
  name: "MobilenetV2/expanded_conv_2/depthwise/depthwise/dilation_rate"
  op: "Const"
  attr {
    key: "dtype"
    value {
      type: DT_INT32
    }
  }
  attr {
    key: "value"
    value {
      tensor {
        dtype: DT_INT32
        tensor_shape {
          dim {
            size: 2
          }
        }
        tensor_content: "\001\000\000\000\001\000\000\000"
      }
    }
  }
}
node {
  name: "MobilenetV2/expanded_conv_2/depthwise/depthwise"
  op: "DepthwiseConv2dNative"
  input: "MobilenetV2/expanded_conv_2/expansion_output"
  input: "MobilenetV2/expanded_conv_2/depthwise/depthwise_weights/read"
  attr {
    key: "T"
    value {
      type: DT_FLOAT
    }
  }
  attr {
    key: "data_format"
    value {
      s: "NHWC"
    }
  }
  attr {
    key: "dilations"
    value {
      list {
        i: 1
        i: 1
        i: 1
        i: 1
      }
    }
  }
  attr {
    key: "padding"
    value {
      s: "SAME"
    }
  }
  attr {
    key: "strides"
    value {
      list {
        i: 1
        i: 1
        i: 1
        i: 1
      }
    }
  }
}
node {
  name: "MobilenetV2/expanded_conv_2/depthwise/BatchNorm/gamma/Initializer/ones/shape_as_tensor"
  op: "Const"
  attr {
    key: "_class"
    value {
      list {
        s: "loc:@MobilenetV2/expanded_conv_2/depthwise/BatchNorm/gamma"
      }
    }
  }
  attr {
    key: "dtype"
    value {
      type: DT_INT32
    }
  }
  attr {
    key: "value"
    value {
      tensor {
        dtype: DT_INT32
        tensor_shape {
          dim {
            size: 1
          }
        }
        int_val: 144
      }
    }
  }
}
node {
  name: "MobilenetV2/expanded_conv_2/depthwise/BatchNorm/gamma/Initializer/ones/Const"
  op: "Const"
  attr {
    key: "_class"
    value {
      list {
        s: "loc:@MobilenetV2/expanded_conv_2/depthwise/BatchNorm/gamma"
      }
    }
  }
  attr {
    key: "dtype"
    value {
      type: DT_FLOAT
    }
  }
  attr {
    key: "value"
    value {
      tensor {
        dtype: DT_FLOAT
        tensor_shape {
        }
        float_val: 1.0
      }
    }
  }
}
node {
  name: "MobilenetV2/expanded_conv_2/depthwise/BatchNorm/gamma/Initializer/ones"
  op: "Fill"
  input: "MobilenetV2/expanded_conv_2/depthwise/BatchNorm/gamma/Initializer/ones/shape_as_tensor"
  input: "MobilenetV2/expanded_conv_2/depthwise/BatchNorm/gamma/Initializer/ones/Const"
  attr {
    key: "T"
    value {
      type: DT_FLOAT
    }
  }
  attr {
    key: "_class"
    value {
      list {
        s: "loc:@MobilenetV2/expanded_conv_2/depthwise/BatchNorm/gamma"
      }
    }
  }
  attr {
    key: "index_type"
    value {
      type: DT_INT32
    }
  }
}
node {
  name: "MobilenetV2/expanded_conv_2/depthwise/BatchNorm/gamma"
  op: "VariableV2"
  attr {
    key: "_class"
    value {
      list {
        s: "loc:@MobilenetV2/expanded_conv_2/depthwise/BatchNorm/gamma"
      }
    }
  }
  attr {
    key: "container"
    value {
      s: ""
    }
  }
  attr {
    key: "dtype"
    value {
      type: DT_FLOAT
    }
  }
  attr {
    key: "shape"
    value {
      shape {
        dim {
          size: 144
        }
      }
    }
  }
  attr {
    key: "shared_name"
    value {
      s: ""
    }
  }
}
node {
  name: "MobilenetV2/expanded_conv_2/depthwise/BatchNorm/gamma/Assign"
  op: "Assign"
  input: "MobilenetV2/expanded_conv_2/depthwise/BatchNorm/gamma"
  input: "MobilenetV2/expanded_conv_2/depthwise/BatchNorm/gamma/Initializer/ones"
  attr {
    key: "T"
    value {
      type: DT_FLOAT
    }
  }
  attr {
    key: "_class"
    value {
      list {
        s: "loc:@MobilenetV2/expanded_conv_2/depthwise/BatchNorm/gamma"
      }
    }
  }
  attr {
    key: "use_locking"
    value {
      b: true
    }
  }
  attr {
    key: "validate_shape"
    value {
      b: true
    }
  }
}
node {
  name: "MobilenetV2/expanded_conv_2/depthwise/BatchNorm/gamma/read"
  op: "Identity"
…
      list {
        s: "loc:@MobilenetV2/expanded_conv_16/project/weights"
      }
    }
  }
  attr {
    key: "dtype"
    value {
      type: DT_INT32
    }
  }
  attr {
    key: "value"
    value {
      tensor {
        dtype: DT_INT32
        tensor_shape {
          dim {
            size: 4
          }
        }
        tensor_content: "\001\000\000\000\001\000\000\000\300\003\000\000@\001\000\000"
      }
    }
  }
}
node {
  name: "MobilenetV2/expanded_conv_16/project/weights/Initializer/random_uniform/min"
  op: "Const"
  attr {
    key: "_class"
    value {
      list {
        s: "loc:@MobilenetV2/expanded_conv_16/project/weights"
      }
    }
  }
  attr {
    key: "dtype"
    value {
      type: DT_FLOAT
    }
  }
  attr {
    key: "value"
    value {
      tensor {
        dtype: DT_FLOAT
        tensor_shape {
        }
        float_val: -0.0684653222561
      }
    }
  }
}
node {
  name: "MobilenetV2/expanded_conv_16/project/weights/Initializer/random_uniform/max"
  op: "Const"
  attr {
    key: "_class"
    value {
      list {
        s: "loc:@MobilenetV2/expanded_conv_16/project/weights"
      }
    }
  }
  attr {
    key: "dtype"
    value {
      type: DT_FLOAT
    }
  }
  attr {
    key: "value"
    value {
      tensor {
        dtype: DT_FLOAT
        tensor_shape {
        }
        float_val: 0.0684653222561
      }
    }
  }
}
node {
  name: "MobilenetV2/expanded_conv_16/project/weights/Initializer/random_uniform/RandomUniform"
  op: "RandomUniform"
  input: "MobilenetV2/expanded_conv_16/project/weights/Initializer/random_uniform/shape"
  attr {
    key: "T"
    value {
      type: DT_INT32
    }
  }
  attr {
    key: "_class"
    value {
      list {
        s: "loc:@MobilenetV2/expanded_conv_16/project/weights"
      }
    }
  }
  attr {
    key: "dtype"
    value {
      type: DT_FLOAT
    }
  }
  attr {
    key: "seed"
    value {
      i: 0
    }
  }
  attr {
    key: "seed2"
    value {
      i: 0
    }
  }
}
node {
  name: "MobilenetV2/expanded_conv_16/project/weights/Initializer/random_uniform/sub"
  op: "Sub"
  input: "MobilenetV2/expanded_conv_16/project/weights/Initializer/random_uniform/max"
  input: "MobilenetV2/expanded_conv_16/project/weights/Initializer/random_uniform/min"
  attr {
    key: "T"
    value {
      type: DT_FLOAT
    }
  }
  attr {
    key: "_class"
    value {
      list {
        s: "loc:@MobilenetV2/expanded_conv_16/project/weights"
      }
    }
  }
}
node {
  name: "MobilenetV2/expanded_conv_16/project/weights/Initializer/random_uniform/mul"
  op: "Mul"
  input: "MobilenetV2/expanded_conv_16/project/weights/Initializer/random_uniform/RandomUniform"
  input: "MobilenetV2/expanded_conv_16/project/weights/Initializer/random_uniform/sub"
  attr {
    key: "T"
    value {
      type: DT_FLOAT
    }
  }
  attr {
    key: "_class"
    value {
      list {
        s: "loc:@MobilenetV2/expanded_conv_16/project/weights"
      }
    }
  }
}
node {
  name: "MobilenetV2/expanded_conv_16/project/weights/Initializer/random_uniform"
  op: "Add"
  input: "MobilenetV2/expanded_conv_16/project/weights/Initializer/random_uniform/mul"
  input: "MobilenetV2/expanded_conv_16/project/weights/Initializer/random_uniform/min"
  attr {
    key: "T"
    value {
      type: DT_FLOAT
    }
  }
  attr {
    key: "_class"
    value {
      list {
        s: "loc:@MobilenetV2/expanded_conv_16/project/weights"
      }
    }
  }
}
node {
  name: "MobilenetV2/expanded_conv_16/project/weights"
  op: "VariableV2"
  attr {
    key: "_class"
    value {
      list {
        s: "loc:@MobilenetV2/expanded_conv_16/project/weights"
      }
    }
  }
  attr {
    key: "container"
    value {
      s: ""
    }
  }
  attr {
    key: "dtype"
    value {
      type: DT_FLOAT
    }
  }
  attr {
    key: "shape"
    value {
      shape {
        dim {
          size: 1
        }
        dim {
          size: 1
        }
        dim {
          size: 960
        }
        dim {
          size: 320
        }
      }
    }
  }
  attr {
    key: "shared_name"
    value {
      s: ""
    }
  }
}
node {
  name: "MobilenetV2/expanded_conv_16/project/weights/Assign"
  op: "Assign"
  input: "MobilenetV2/expanded_conv_16/project/weights"
  input: "MobilenetV2/expanded_conv_16/project/weights/Initializer/random_uniform"
  attr {
    key: "T"
    value {
      type: DT_FLOAT
    }
  }
  attr {
    key: "_class"
    value {
      list {
        s: "loc:@MobilenetV2/expanded_conv_16/project/weights"
      }
    }
  }
  attr {
    key: "use_locking"
    value {
      b: true
    }
  }
  attr {
    key: "validate_shape"
    value {
      b: true
    }
  }
}
node {
  name: "MobilenetV2/expanded_conv_16/project/weights/read"
  op: "Identity"
  input: "MobilenetV2/expanded_conv_16/project/weights"
  attr {
    key: "T"
    value {
      type: DT_FLOAT
    }
  }
  attr {
    key: "_class"
    value {
      list {
        s: "loc:@MobilenetV2/expanded_conv_16/project/weights"
      }
    }
  }
}
node {
  name: "MobilenetV2/expanded_conv_16/project/dilation_rate"
  op: "Const"
  attr {
    key: "dtype"
    value {
      type: DT_INT32
    }
  }
  attr {
    key: "value"
    value {
      tensor {
        dtype: DT_INT32
        tensor_shape {
          dim {
            size: 2
          }
        }
        tensor_content: "\001\000\000\000\001\000\000\000"
      }
    }
  }
}
node {
  name: "MobilenetV2/expanded_conv_16/project/Conv2D"
  op: "Conv2D"
  input: "MobilenetV2/expanded_conv_16/depthwise_output"
  input: "MobilenetV2/expanded_conv_16/project/weights/read"
  attr {
    key: "T"
    value {
      type: DT_FLOAT
    }
  }
  attr {
    key: "data_format"
    value {
      s: "NHWC"
    }
  }
  attr {
    key: "dilations"
    value {
      list {
        i: 1
        i: 1
        i: 1
        i: 1
      }
    }
  }
  attr {
    key: "padding"
    value {
      s: "SAME"
    }
  }
  attr {
    key: "strides"
    value {
      list {
        i: 1
        i: 1
        i: 1
        i: 1
      }
    }
  }
  attr {
    key: "use_cudnn_on_gpu"
    value {
      b: true
    }
  }
}
node {
  name: "MobilenetV2/expanded_conv_16/project/BatchNorm/gamma/Initializer/ones/shape_as_tensor"
  op: "Const"
  attr {
    key: "_class"
    value {
      list {
        s: "loc:@MobilenetV2/expanded_conv_16/project/BatchNorm/gamma"
      }
    }
  }
  attr {
    key: "dtype"
    value {
      type: DT_INT32
    }
  }
  attr {
    key: "value"
    value {
      tensor {
        dtype: DT_INT32
        tensor_shape {
          dim {
            size: 1
          }
        }
        int_val: 320
      }
    }
  }
}
node {
  name: "MobilenetV2/expanded_conv_16/project/BatchNorm/gamma/Initializer/ones/Const"
  op: "Const"
  attr {
    key: "_class"
    value {
      list {
        s: "loc:@MobilenetV2/expanded_conv_16/project/BatchNorm/gamma"
      }
    }
  }
  attr {
    key: "dtype"
    value {
      type: DT_FLOAT
    }
  }
  attr {
    key: "value"
    value {
      tensor {
        dtype: DT_FLOAT
        tensor_shape {
        }
        float_val: 1.0
      }
    }
  }
}
node {
  name: "MobilenetV2/expanded_conv_16/project/BatchNorm/gamma/Initializer/ones"
  op: "Fill"
  input: "MobilenetV2/expanded_conv_16/project/BatchNorm/gamma/Initializer/ones/shape_as_tensor"
  input: "MobilenetV2/expanded_conv_16/project/BatchNorm/gamma/Initializer/ones/Const"
  attr {
    key: "T"
    value {
      type: DT_FLOAT
    }
  }
  attr {
    key: "_class"
    value {
      list {
        s: "loc:@MobilenetV2/expanded_conv_16/project/BatchNorm/gamma"
      }
    }
  }
  attr {
    key: "index_type"
    value {
      type: DT_INT32
    }
  }
}
node {
  name: "MobilenetV2/expanded_conv_16/project/BatchNorm/gamma"
  op: "VariableV2"
  attr {
    key: "_class"
    value {
      list {
        s: "loc:@MobilenetV2/expanded_conv_16/project/BatchNorm/gamma"
      }
    }
  }
  attr {
    key: "container"
    value {
      s: ""
    }
  }
  attr {
    key: "dtype"
    value {
      type: DT_FLOAT
    }
  }
  attr {
    key: "shape"
    value {
      shape {
        dim {
          size: 320
        }
      }
    }
  }
  attr {
    key: "shared_name"
    value {
      s: ""
    }
  }
}
node {
  name: "MobilenetV2/expanded_conv_16/project/BatchNorm/gamma/Assign"
  op: "Assign"
  input: "MobilenetV2/expanded_conv_16/project/BatchNorm/gamma"
  input: "MobilenetV2/expanded_conv_16/project/BatchNorm/gamma/Initializer/ones"
  attr {
    key: "T"
    value {
      type: DT_FLOAT
    }
  }
  attr {
    key: "_class"
    value {
      list {
        s: "loc:@MobilenetV2/expanded_conv_16/project/BatchNorm/gamma"
      }
    }
  }
  attr {
    key: "use_locking"
    value {
      b: true
    }
  }
  attr {
    key: "validate_shape"
    value {
      b: true
    }
  }
}
node {
  name: "MobilenetV2/expanded_conv_16/project/BatchNorm/gamma/read"
  op: "Identity"
  input: "MobilenetV2/expanded_conv_16/project/BatchNorm/gamma"
  attr {
    key: "T"
    value {
      type: DT_FLOAT
    }
  }
  attr {
    key: "_class"
    value {
      list {
        s: "loc:@MobilenetV2/expanded_conv_16/project/BatchNorm/gamma"
      }
    }
  }
}
node {
  name: "MobilenetV2/expanded_conv_16/project/BatchNorm/beta/Initializer/zeros/shape_as_tensor"
  op: "Const"
  attr {
    key: "_class"
    value {
      list {
        s: "loc:@MobilenetV2/expanded_conv_16/project/BatchNorm/beta"
      }
    }
  }
  attr {
    key: "dtype"
    value {
      type: DT_INT32
    }
  }
  attr {
    key: "value"
    value {
      tensor {
        dtype: DT_INT32
        tensor_shape {
          dim {
            size: 1
          }
        }
        int_val: 320
      }
    }
  }
}
node {
  name: "MobilenetV2/expanded_conv_16/project/BatchNorm/beta/Initializer/zeros/Const"
  op: "Const"
  attr {
    key: "_class"
    value {
      list {
        s: "loc:@MobilenetV2/expanded_conv_16/project/BatchNorm/beta"
      }
    }
  }
  attr {
    key: "dtype"
    value {
      type: DT_FLOAT
    }
  }
  attr {
    key: "value"
    value {
      tensor {
        dtype: DT_FLOAT
        tensor_shape {
        }
        float_val: 0.0
      }
    }
  }
}
node {
  name: "MobilenetV2/expanded_conv_16/project/BatchNorm/beta/Initializer/zeros"
  op: "Fill"
  input: "MobilenetV2/expanded_conv_16/project/BatchNorm/beta/Initializer/zeros/shape_as_tensor"
  input: "MobilenetV2/expanded_conv_16/project/BatchNorm/beta/Initializer/zeros/Const"
  attr {
    key: "T"
    value {
      type: DT_FLOAT
    }
  }
  attr {
    key: "_class"
    value {
      list {
        s: "loc:@MobilenetV2/expanded_conv_16/project/BatchNorm/beta"
      }
    }
  }
  attr {
    key: "index_type"
    value {
      type: DT_INT32
    }
  }
}
node {
  name: "MobilenetV2/expanded_conv_16/project/BatchNorm/beta"
  op: "VariableV2"
  attr {
    key: "_class"
    value {
      list {
        s: "loc:@MobilenetV2/expanded_conv_16/project/BatchNorm/beta"
      }
    }
  }
  attr {
    key: "container"
    value {
      s: ""
    }
  }
  attr {
    key: "dtype"
    value {
      type: DT_FLOAT
    }
  }
  attr {
    key: "shape"
    value {
      shape {
        dim {
          size: 320
        }
      }
    }
  }
  attr {
    key: "shared_name"
    value {
      s: ""
    }
  }
}
node {
  name: "MobilenetV2/expanded_conv_16/project/BatchNorm/beta/Assign"
  op: "Assign"
  input: "MobilenetV2/expanded_conv_16/project/BatchNorm/beta"
  input: "MobilenetV2/expanded_conv_16/project/BatchNorm/beta/Initializer/zeros"
  attr {
    key: "T"
    value {
      type: DT_FLOAT
    }
  }
  attr {
    key: "_class"
    value {
      list {
        s: "loc:@MobilenetV2/expanded_conv_16/project/BatchNorm/beta"
      }
    }
  }
  attr {
    key: "use_locking"
    value {
      b: true
    }
  }
  attr {
    key: "validate_shape"
    value {
      b: true
    }
  }
}
node {
  name: "MobilenetV2/expanded_conv_16/project/BatchNorm/beta/read"
  op: "Identity"
  input: "MobilenetV2/expanded_conv_16/project/BatchNorm/beta"
  attr {
    key: "T"
    value {
      type: DT_FLOAT
    }
  }
  attr {
    key: "_class"
    value {
      list {
        s: "loc:@MobilenetV2/expanded_conv_16/project/BatchNorm/beta"
      }
    }
  }
}
node {
  name: "MobilenetV2/expanded_conv_16/project/BatchNorm/moving_mean/Initializer/zeros/shape_as_tensor"
  op: "Const"
  attr {
    key: "_class"
    value {
      list {
        s: "loc:@MobilenetV2/expanded_conv_16/project/BatchNorm/moving_mean"
      }
    }
  }
  attr {
    key: "dtype"
    value {
      type: DT_INT32
    }
  }
  attr {
    key: "value"
    value {
      tensor {
        dtype: DT_INT32
        tensor_shape {
          dim {
            size: 1
          }
        }
        int_val: 320
      }
    }
  }
}
node {
  name: "MobilenetV2/expanded_conv_16/project/BatchNorm/moving_mean/Initializer/zeros/Const"
  op: "Const"
  attr {
    key: "_class"
    value {
      list {
        s: "loc:@MobilenetV2/expanded_conv_16/project/BatchNorm/moving_mean"
      }
    }
  }
  attr {
    key: "dtype"
    value {
      type: DT_FLOAT
    }
  }
  attr {
    key: "value"
    value {
      tensor {
        dtype: DT_FLOAT
        tensor_shape {
        }
        float_val: 0.0
      }
    }
  }
}
node {
  name: "MobilenetV2/expanded_conv_16/project/BatchNorm/moving_mean/Initializer/zeros"
  op: "Fill"
  input: "MobilenetV2/expanded_conv_16/project/BatchNorm/moving_mean/Initializer/zeros/shape_as_tensor"
  input: "MobilenetV2/expanded_conv_16/project/BatchNorm/moving_mean/Initializer/zeros/Const"
  attr {
    key: "T"
    value {
      type: DT_FLOAT
    }
  }
  attr {
    key: "_class"
    value {
      list {
        s: "loc:@MobilenetV2/expanded_conv_16/project/BatchNorm/moving_mean"
      }
    }
  }
  attr {
    key: "index_type"
    value {
      type: DT_INT32
    }
  }
}
node {
  name: "MobilenetV2/expanded_conv_16/project/BatchNorm/moving_mean"
  op: "VariableV2"
  attr {
    key: "_class"
    value {
      list {
        s: "loc:@MobilenetV2/expanded_conv_16/project/BatchNorm/moving_mean"
      }
    }
  }
  attr {
    key: "container"
    value {
      s: ""
    }
  }
  attr {
    key: "dtype"
    value {
      type: DT_FLOAT
    }
  }
  attr {
    key: "shape"
    value {
      shape {
        dim {
          size: 320
        }
      }
    }
  }
  attr {
    key: "shared_name"
    value {
      s: ""
    }
  }
}
node {
  name: "MobilenetV2/expanded_conv_16/project/BatchNorm/moving_mean/Assign"
  op: "Assign"
  input: "MobilenetV2/expanded_conv_16/project/BatchNorm/moving_mean"
  input: "MobilenetV2/expanded_conv_16/project/BatchNorm/moving_mean/Initializer/zeros"
  attr {
    key: "T"
    value {
      type: DT_FLOAT
    }
  }
  attr {
    key: "_class"
    value {
      list {
        s: "loc:@MobilenetV2/expanded_conv_16/project/BatchNorm/moving_mean"
      }
    }
  }
  attr {
    key: "use_locking"
    value {
      b: true
    }
  }
  attr {
    key: "validate_shape"
    value {
      b: true
    }
  }
}
node {
  name: "MobilenetV2/expanded_conv_16/project/BatchNorm/moving_mean/read"
  op: "Identity"
  input: "MobilenetV2/expanded_conv_16/project/BatchNorm/moving_mean"
  attr {
    key: "T"
    value {
      type: DT_FLOAT
    }
  }
  attr {
    key: "_class"
    value {
      list {
        s: "loc:@MobilenetV2/expanded_conv_16/project/BatchNorm/moving_mean"
      }
    }
  }
}
node {
  name: "MobilenetV2/expanded_conv_16/project/BatchNorm/moving_variance/Initializer/ones/shape_as_tensor"
  op: "Const"
  attr {
    key: "_class"
    value {
      list {
        s: "loc:@MobilenetV2/expanded_conv_16/project/BatchNorm/moving_variance"
      }
    }
  }
  attr {
    key: "dtype"
    value {
      type: DT_INT32
    }
  }
  attr {
    key: "value"
    value {
      tensor {
        dtype: DT_INT32
        tensor_shape {
          dim {
            size: 1
          }
        }
        int_val: 320
      }
    }
  }
}
node {
  name: "MobilenetV2/expanded_conv_16/project/BatchNorm/moving_variance/Initializer/ones/Const"
  op: "Const"
  attr {
    key: "_class"
    value {
      list {
        s: "loc:@MobilenetV2/expanded_conv_16/project/BatchNorm/moving_variance"
      }
    }
  }
  attr {
    key: "dtype"
    value {
      type: DT_FLOAT
    }
  }
  attr {
    key: "value"
    value {
      tensor {
        dtype: DT_FLOAT
        tensor_shape {
        }
        float_val: 1.0
      }
    }
  }
}
node {
  name: "MobilenetV2/expanded_conv_16/project/BatchNorm/moving_variance/Initializer/ones"
  op: "Fill"
  input: "MobilenetV2/expanded_conv_16/project/BatchNorm/moving_variance/Initializer/ones/shape_as_tensor"
  input: "MobilenetV2/expanded_conv_16/project/BatchNorm/moving_variance/Initializer/ones/Const"
  attr {
    key: "T"
    value {
      type: DT_FLOAT
    }
  }
  attr {
    key: "_class"
    value {
      list {
        s: "loc:@MobilenetV2/expanded_conv_16/project/BatchNorm/moving_variance"
      }
    }
  }
  attr {
    key: "index_type"
    value {
      type: DT_INT32
    }
  }
}
node {
  name: "MobilenetV2/expanded_conv_16/project/BatchNorm/moving_variance"
  op: "VariableV2"
  attr {
    key: "_class"
    value {
      list {
        s: "loc:@MobilenetV2/expanded_conv_16/project/BatchNorm/moving_variance"
      }
    }
  }
  attr {
    key: "container"
    value {
      s: ""
    }
  }
  attr {
    key: "dtype"
    value {
      type: DT_FLOAT
    }
  }
  attr {
    key: "shape"
    value {
      shape {
        dim {
          size: 320
        }
      }
    }
  }
  attr {
    key: "shared_name"
    value {
      s: ""
    }
  }
}
node {
  name: "MobilenetV2/expanded_conv_16/project/BatchNorm/moving_variance/Assign"
  op: "Assign"
  input: "MobilenetV2/expanded_conv_16/project/BatchNorm/moving_variance"
  input: "MobilenetV2/expanded_conv_16/project/BatchNorm/moving_variance/Initializer/ones"
  attr {
    key: "T"
    value {
      type: DT_FLOAT
    }
  }
  attr {
    key: "_class"
    value {
      list {
        s: "loc:@MobilenetV2/expanded_conv_16/project/BatchNorm/moving_variance"
      }
    }
  }
  attr {
    key: "use_locking"
    value {
      b: true
    }
  }
  attr {
    key: "validate_shape"
    value {
      b: true
    }
  }
}
node {
  name: "MobilenetV2/expanded_conv_16/project/BatchNorm/moving_variance/read"
  op: "Identity"
  input: "MobilenetV2/expanded_conv_16/project/BatchNorm/moving_variance"
  attr {
    key: "T"
    value {
      type: DT_FLOAT
    }
  }
  attr {
    key: "_class"
    value {
      list {
        s: "loc:@MobilenetV2/expanded_conv_16/project/BatchNorm/moving_variance"
      }
    }
  }
}
node {
  name: "MobilenetV2/expanded_conv_16/project/BatchNorm/FusedBatchNorm"
  op: "FusedBatchNorm"
  input: "MobilenetV2/expanded_conv_16/project/Conv2D"
  input: "MobilenetV2/expanded_conv_16/project/BatchNorm/gamma/read"
  input: "MobilenetV2/expanded_conv_16/project/BatchNorm/beta/read"
  input: "MobilenetV2/expanded_conv_16/project/BatchNorm/moving_mean/read"
  input: "MobilenetV2/expanded_conv_16/project/BatchNorm/moving_variance/read"
  attr {
    key: "T"
    value {
      type: DT_FLOAT
    }
  }
  attr {
    key: "data_format"
    value {
      s: "NHWC"
    }
  }
  attr {
    key: "epsilon"
    value {
      f: 0.0010000000475
    }
  }
  attr {
    key: "is_training"
    value {
      b: false
    }
  }
}
node {
  name: "MobilenetV2/expanded_conv_16/project/BatchNorm/Const"
  op: "Const"
  attr {
    key: "dtype"
    value {
      type: DT_FLOAT
    }
  }
  attr {
    key: "value"
    value {
      tensor {
        dtype: DT_FLOAT
        tensor_shape {
        }
        float_val: 0.999000012875
      }
    }
  }
}
node {
  name: "MobilenetV2/expanded_conv_16/project/Identity"
  op: "Identity"
  input: "MobilenetV2/expanded_conv_16/project/BatchNorm/FusedBatchNorm"
  attr {
    key: "T"
    value {
      type: DT_FLOAT
    }
  }
}
node {
  name: "MobilenetV2/expanded_conv_16/output"
  op: "Identity"
  input: "MobilenetV2/expanded_conv_16/project/Identity"
  attr {
    key: "T"
    value {
      type: DT_FLOAT
    }
  }
}
node {
  name: "MobilenetV2/Conv_1/weights/Initializer/random_uniform/shape"
  op: "Const"
  attr {
    key: "_class"
    value {
      list {
        s: "loc:@MobilenetV2/Conv_1/weights"
      }
    }
  }
  attr {
    key: "dtype"
    value {
      type: DT_INT32
    }
  }
  attr {
    key: "value"
    value {
      tensor {
        dtype: DT_INT32
        tensor_shape {
          dim {
            size: 4
          }
        }
        tensor_content: "\001\000\000\000\001\000\000\000@\001\000\000\000\005\000\000"
      }
    }
  }
}
node {
  name: "MobilenetV2/Conv_1/weights/Initializer/random_uniform/min"
  op: "Const"
  attr {
    key: "_class"
    value {
      list {
        s: "loc:@MobilenetV2/Conv_1/weights"
      }
    }
  }
  attr {
    key: "dtype"
    value {
      type: DT_FLOAT
    }
  }
  attr {
    key: "value"
    value {
      tensor {
        dtype: DT_FLOAT
        tensor_shape {
        }
        float_val: -0.0612372420728
      }
    }
  }
}
node {
  name: "MobilenetV2/Conv_1/weights/Initializer/random_uniform/max"
  op: "Const"
  attr {
    key: "_class"
    value {
      list {
        s: "loc:@MobilenetV2/Conv_1/weights"
      }
    }
  }
  attr {
    key: "dtype"
    value {
      type: DT_FLOAT
    }
  }
  attr {
    key: "value"
    value {
      tensor {
        dtype: DT_FLOAT
        tensor_shape {
        }
        float_val: 0.0612372420728
      }
    }
  }
}
node {
  name: "MobilenetV2/Conv_1/weights/Initializer/random_uniform/RandomUniform"
  op: "RandomUniform"
  input: "MobilenetV2/Conv_1/weights/Initializer/random_uniform/shape"
  attr {
    key: "T"
    value {
      type: DT_INT32
    }
  }
  attr {
    key: "_class"
    value {
      list {
        s: "loc:@MobilenetV2/Conv_1/weights"
      }
    }
  }
  attr {
    key: "dtype"
    value {
      type: DT_FLOAT
    }
  }
  attr {
    key: "seed"
    value {
      i: 0
    }
  }
  attr {
    key: "seed2"
    value {
      i: 0
    }
  }
}
node {
  name: "MobilenetV2/Conv_1/weights/Initializer/random_uniform/sub"
  op: "Sub"
  input: "MobilenetV2/Conv_1/weights/Initializer/random_uniform/max"
  input: "MobilenetV2/Conv_1/weights/Initializer/random_uniform/min"
  attr {
    key: "T"
    value {
      type: DT_FLOAT
    }
  }
  attr {
    key: "_class"
    value {
      list {
        s: "loc:@MobilenetV2/Conv_1/weights"
      }
    }
  }
}
node {
  name: "MobilenetV2/Conv_1/weights/Initializer/random_uniform/mul"
  op: "Mul"
  input: "MobilenetV2/Conv_1/weights/Initializer/random_uniform/RandomUniform"
  input: "MobilenetV2/Conv_1/weights/Initializer/random_uniform/sub"
  attr {
    key: "T"
    value {
      type: DT_FLOAT
    }
  }
  attr {
    key: "_class"
    value {
      list {
        s: "loc:@MobilenetV2/Conv_1/weights"
      }
    }
  }
}
node {
  name: "MobilenetV2/Conv_1/weights/Initializer/random_uniform"
  op: "Add"
  input: "MobilenetV2/Conv_1/weights/Initializer/random_uniform/mul"
  input: "MobilenetV2/Conv_1/weights/Initializer/random_uniform/min"
  attr {
    key: "T"
    value {
      type: DT_FLOAT
    }
  }
  attr {
    key: "_class"
    value {
      list {
        s: "loc:@MobilenetV2/Conv_1/weights"
      }
    }
  }
}
node {
  name: "MobilenetV2/Conv_1/weights"
  op: "VariableV2"
  attr {
    key: "_class"
    value {
      list {
        s: "loc:@MobilenetV2/Conv_1/weights"
      }
    }
  }
  attr {
    key: "container"
    value {
      s: ""
    }
  }
  attr {
    key: "dtype"
    value {
      type: DT_FLOAT
    }
  }
  attr {
    key: "shape"
    value {
      shape {
        dim {
          size: 1
        }
        dim {
          size: 1
        }
        dim {
          size: 320
        }
        dim {
          size: 1280
        }
      }
    }
  }
  attr {
    key: "shared_name"
    value {
      s: ""
    }
  }
}
node {
  name: "MobilenetV2/Conv_1/weights/Assign"
  op: "Assign"
  input: "MobilenetV2/Conv_1/weights"
  input: "MobilenetV2/Conv_1/weights/Initializer/random_uniform"
  attr {
    key: "T"
    value {
      type: DT_FLOAT
    }
  }
  attr {
    key: "_class"
    value {
      list {
        s: "loc:@MobilenetV2/Conv_1/weights"
      }
    }
  }
  attr {
    key: "use_locking"
    value {
      b: true
    }
  }
  attr {
    key: "validate_shape"
    value {
      b: true
    }
  }
}
node {
  name: "MobilenetV2/Conv_1/weights/read"
  op: "Identity"
  input: "MobilenetV2/Conv_1/weights"
  attr {
    key: "T"
    value {
      type: DT_FLOAT
    }
  }
  attr {
    key: "_class"
    value {
      list {
        s: "loc:@MobilenetV2/Conv_1/weights"
      }
    }
  }
}
node {
  name: "MobilenetV2/Conv_1/dilation_rate"
  op: "Const"
  attr {
    key: "dtype"
    value {
      type: DT_INT32
    }
  }
  attr {
    key: "value"
    value {
      tensor {
        dtype: DT_INT32
        tensor_shape {
          dim {
            size: 2
          }
        }
        tensor_content: "\001\000\000\000\001\000\000\000"
      }
    }
  }
}
node {
  name: "MobilenetV2/Conv_1/Conv2D"
  op: "Conv2D"
  input: "MobilenetV2/expanded_conv_16/output"
  input: "MobilenetV2/Conv_1/weights/read"
  attr {
    key: "T"
    value {
      type: DT_FLOAT
    }
  }
  attr {
    key: "data_format"
    value {
      s: "NHWC"
    }
  }
  attr {
    key: "dilations"
    value {
      list {
        i: 1
        i: 1
        i: 1
        i: 1
      }
    }
  }
  attr {
    key: "padding"
    value {
      s: "SAME"
    }
  }
  attr {
    key: "strides"
    value {
      list {
        i: 1
        i: 1
        i: 1
        i: 1
      }
    }
  }
  attr {
    key: "use_cudnn_on_gpu"
    value {
      b: true
    }
  }
}
node {
  name: "MobilenetV2/Conv_1/BatchNorm/gamma/Initializer/ones/shape_as_tensor"
  op: "Const"
  attr {
    key: "_class"
    value {
      list {
        s: "loc:@MobilenetV2/Conv_1/BatchNorm/gamma"
      }
    }
  }
  attr {
    key: "dtype"
    value {
      type: DT_INT32
    }
  }
  attr {
    key: "value"
    value {
      tensor {
        dtype: DT_INT32
        tensor_shape {
          dim {
            size: 1
          }
        }
        int_val: 1280
      }
    }
  }
}
node {
  name: "MobilenetV2/Conv_1/BatchNorm/gamma/Initializer/ones/Const"
  op: "Const"
  attr {
    key: "_class"
    value {
      list {
        s: "loc:@MobilenetV2/Conv_1/BatchNorm/gamma"
      }
    }
  }
  attr {
    key: "dtype"
    value {
      type: DT_FLOAT
    }
  }
  attr {
    key: "value"
    value {
      tensor {
        dtype: DT_FLOAT
        tensor_shape {
        }
        float_val: 1.0
      }
    }
  }
}
node {
  name: "MobilenetV2/Conv_1/BatchNorm/gamma/Initializer/ones"
  op: "Fill"
  input: "MobilenetV2/Conv_1/BatchNorm/gamma/Initializer/ones/shape_as_tensor"
  input: "MobilenetV2/Conv_1/BatchNorm/gamma/Initializer/ones/Const"
  attr {
    key: "T"
    value {
      type: DT_FLOAT
    }
  }
  attr {
    key: "_class"
    value {
      list {
        s: "loc:@MobilenetV2/Conv_1/BatchNorm/gamma"
      }
    }
  }
  attr {
    key: "index_type"
    value {
      type: DT_INT32
    }
  }
}
node {
  name: "MobilenetV2/Conv_1/BatchNorm/gamma"
  op: "VariableV2"
  attr {
    key: "_class"
    value {
      list {
        s: "loc:@MobilenetV2/Conv_1/BatchNorm/gamma"
      }
    }
  }
  attr {
    key: "container"
    value {
      s: ""
    }
  }
  attr {
    key: "dtype"
    value {
      type: DT_FLOAT
    }
  }
  attr {
    key: "shape"
    value {
      shape {
        dim {
          size: 1280
        }
      }
    }
  }
  attr {
    key: "shared_name"
    value {
      s: ""
    }
  }
}
node {
  name: "MobilenetV2/Conv_1/BatchNorm/gamma/Assign"
  op: "Assign"
  input: "MobilenetV2/Conv_1/BatchNorm/gamma"
  input: "MobilenetV2/Conv_1/BatchNorm/gamma/Initializer/ones"
  attr {
    key: "T"
    value {
      type: DT_FLOAT
    }
  }
  attr {
    key: "_class"
    value {
      list {
        s: "loc:@MobilenetV2/Conv_1/BatchNorm/gamma"
      }
    }
  }
  attr {
    key: "use_locking"
    value {
      b: true
    }
  }
  attr {
    key: "validate_shape"
    value {
      b: true
    }
  }
}
node {
  name: "MobilenetV2/Conv_1/BatchNorm/gamma/read"
  op: "Identity"
  input: "MobilenetV2/Conv_1/BatchNorm/gamma"
  attr {
    key: "T"
    value {
      type: DT_FLOAT
    }
  }
  attr {
    key: "_class"
    value {
      list {
        s: "loc:@MobilenetV2/Conv_1/BatchNorm/gamma"
      }
    }
  }
}
node {
  name: "MobilenetV2/Conv_1/BatchNorm/beta/Initializer/zeros/shape_as_tensor"
  op: "Const"
  attr {
    key: "_class"
    value {
      list {
        s: "loc:@MobilenetV2/Conv_1/BatchNorm/beta"
      }
    }
  }
  attr {
    key: "dtype"
    value {
      type: DT_INT32
    }
  }
  attr {
    key: "value"
    value {
      tensor {
        dtype: DT_INT32
        tensor_shape {
          dim {
            size: 1
          }
        }
        int_val: 1280
      }
    }
  }
}
node {
  name: "MobilenetV2/Conv_1/BatchNorm/beta/Initializer/zeros/Const"
  op: "Const"
  attr {
    key: "_class"
    value {
      list {
        s: "loc:@MobilenetV2/Conv_1/BatchNorm/beta"
      }
    }
  }
  attr {
    key: "dtype"
    value {
      type: DT_FLOAT
    }
  }
  attr {
    key: "value"
    value {
      tensor {
        dtype: DT_FLOAT
        tensor_shape {
        }
        float_val: 0.0
      }
    }
  }
}
node {
  name: "MobilenetV2/Conv_1/BatchNorm/beta/Initializer/zeros"
  op: "Fill"
  input: "MobilenetV2/Conv_1/BatchNorm/beta/Initializer/zeros/shape_as_tensor"
  input: "MobilenetV2/Conv_1/BatchNorm/beta/Initializer/zeros/Const"
  attr {
    key: "T"
    value {
      type: DT_FLOAT
    }
  }
  attr {
    key: "_class"
    value {
      list {
        s: "loc:@MobilenetV2/Conv_1/BatchNorm/beta"
      }
    }
  }
  attr {
    key: "index_type"
    value {
      type: DT_INT32
    }
  }
}
node {
  name: "MobilenetV2/Conv_1/BatchNorm/beta"
  op: "VariableV2"
  attr {
    key: "_class"
    value {
      list {
        s: "loc:@MobilenetV2/Conv_1/BatchNorm/beta"
      }
    }
  }
  attr {
    key: "container"
    value {
      s: ""
    }
  }
  attr {
    key: "dtype"
    value {
      type: DT_FLOAT
    }
  }
  attr {
    key: "shape"
    value {
      shape {
        dim {
          size: 1280
        }
      }
    }
  }
  attr {
    key: "shared_name"
    value {
      s: ""
    }
  }
}
node {
  name: "MobilenetV2/Conv_1/BatchNorm/beta/Assign"
  op: "Assign"
  input: "MobilenetV2/Conv_1/BatchNorm/beta"
  input: "MobilenetV2/Conv_1/BatchNorm/beta/Initializer/zeros"
  attr {
    key: "T"
    value {
      type: DT_FLOAT
    }
  }
  attr {
    key: "_class"
    value {
      list {
        s: "loc:@MobilenetV2/Conv_1/BatchNorm/beta"
      }
    }
  }
  attr {
    key: "use_locking"
    value {
      b: true
    }
  }
  attr {
    key: "validate_shape"
    value {
      b: true
    }
  }
}
node {
  name: "MobilenetV2/Conv_1/BatchNorm/beta/read"
  op: "Identity"
  input: "MobilenetV2/Conv_1/BatchNorm/beta"
  attr {
    key: "T"
    value {
      type: DT_FLOAT
    }
  }
  attr {
    key: "_class"
    value {
      list {
        s: "loc:@MobilenetV2/Conv_1/BatchNorm/beta"
      }
    }
  }
}
node {
  name: "MobilenetV2/Conv_1/BatchNorm/moving_mean/Initializer/zeros/shape_as_tensor"
  op: "Const"
  attr {
    key: "_class"
    value {
      list {
        s: "loc:@MobilenetV2/Conv_1/BatchNorm/moving_mean"
      }
    }
  }
  attr {
    key: "dtype"
    value {
      type: DT_INT32
    }
  }
  attr {
    key: "value"
    value {
      tensor {
        dtype: DT_INT32
        tensor_shape {
          dim {
            size: 1
          }
        }
        int_val: 1280
      }
    }
  }
}
node {
  name: "MobilenetV2/Conv_1/BatchNorm/moving_mean/Initializer/zeros/Const"
  op: "Const"
  attr {
    key: "_class"
    value {
      list {
        s: "loc:@MobilenetV2/Conv_1/BatchNorm/moving_mean"
      }
    }
  }
  attr {
    key: "dtype"
    value {
      type: DT_FLOAT
    }
  }
  attr {
    key: "value"
    value {
      tensor {
        dtype: DT_FLOAT
        tensor_shape {
        }
        float_val: 0.0
      }
    }
  }
}
node {
  name: "MobilenetV2/Conv_1/BatchNorm/moving_mean/Initializer/zeros"
  op: "Fill"
  input: "MobilenetV2/Conv_1/BatchNorm/moving_mean/Initializer/zeros/shape_as_tensor"
  input: "MobilenetV2/Conv_1/BatchNorm/moving_mean/Initializer/zeros/Const"
  attr {
    key: "T"
    value {
      type: DT_FLOAT
    }
  }
  attr {
    key: "_class"
    value {
      list {
        s: "loc:@MobilenetV2/Conv_1/BatchNorm/moving_mean"
      }
    }
  }
  attr {
    key: "index_type"
    value {
      type: DT_INT32
    }
  }
}
node {
  name: "MobilenetV2/Conv_1/BatchNorm/moving_mean"
  op: "VariableV2"
  attr {
    key: "_class"
    value {
      list {
        s: "loc:@MobilenetV2/Conv_1/BatchNorm/moving_mean"
      }
    }
  }
  attr {
    key: "container"
    value {
      s: ""
    }
  }
  attr {
    key: "dtype"
    value {
      type: DT_FLOAT
    }
  }
  attr {
    key: "shape"
    value {
      shape {
        dim {
          size: 1280
        }
      }
    }
  }
  attr {
    key: "shared_name"
    value {
      s: ""
    }
  }
}
node {
  name: "MobilenetV2/Conv_1/BatchNorm/moving_mean/Assign"
  op: "Assign"
  input: "MobilenetV2/Conv_1/BatchNorm/moving_mean"
  input: "MobilenetV2/Conv_1/BatchNorm/moving_mean/Initializer/zeros"
  attr {
    key: "T"
    value {
      type: DT_FLOAT
    }
  }
  attr {
    key: "_class"
    value {
      list {
        s: "loc:@MobilenetV2/Conv_1/BatchNorm/moving_mean"
      }
    }
  }
  attr {
    key: "use_locking"
    value {
      b: true
    }
  }
  attr {
    key: "validate_shape"
    value {
      b: true
    }
  }
}
node {
  name: "MobilenetV2/Conv_1/BatchNorm/moving_mean/read"
  op: "Identity"
  input: "MobilenetV2/Conv_1/BatchNorm/moving_mean"
  attr {
    key: "T"
    value {
      type: DT_FLOAT
    }
  }
  attr {
    key: "_class"
    value {
      list {
        s: "loc:@MobilenetV2/Conv_1/BatchNorm/moving_mean"
      }
    }
  }
}
node {
  name: "MobilenetV2/Conv_1/BatchNorm/moving_variance/Initializer/ones/shape_as_tensor"
  op: "Const"
  attr {
    key: "_class"
    value {
      list {
        s: "loc:@MobilenetV2/Conv_1/BatchNorm/moving_variance"
      }
    }
  }
  attr {
    key: "dtype"
    value {
      type: DT_INT32
    }
  }
  attr {
    key: "value"
    value {
      tensor {
        dtype: DT_INT32
        tensor_shape {
          dim {
            size: 1
          }
        }
        int_val: 1280
      }
    }
  }
}
node {
  name: "MobilenetV2/Conv_1/BatchNorm/moving_variance/Initializer/ones/Const"
  op: "Const"
  attr {
    key: "_class"
    value {
      list {
        s: "loc:@MobilenetV2/Conv_1/BatchNorm/moving_variance"
      }
    }
  }
  attr {
    key: "dtype"
    value {
      type: DT_FLOAT
    }
  }
  attr {
    key: "value"
    value {
      tensor {
        dtype: DT_FLOAT
        tensor_shape {
        }
        float_val: 1.0
      }
    }
  }
}
node {
  name: "MobilenetV2/Conv_1/BatchNorm/moving_variance/Initializer/ones"
  op: "Fill"
  input: "MobilenetV2/Conv_1/BatchNorm/moving_variance/Initializer/ones/shape_as_tensor"
  input: "MobilenetV2/Conv_1/BatchNorm/moving_variance/Initializer/ones/Const"
  attr {
    key: "T"
    value {
      type: DT_FLOAT
    }
  }
  attr {
    key: "_class"
    value {
      list {
        s: "loc:@MobilenetV2/Conv_1/BatchNorm/moving_variance"
      }
    }
  }
  attr {
    key: "index_type"
    value {
      type: DT_INT32
    }
  }
}
node {
  name: "MobilenetV2/Conv_1/BatchNorm/moving_variance"
  op: "VariableV2"
  attr {
    key: "_class"
    value {
      list {
        s: "loc:@MobilenetV2/Conv_1/BatchNorm/moving_variance"
      }
    }
  }
  attr {
    key: "container"
    value {
      s: ""
    }
  }
  attr {
    key: "dtype"
    value {
      type: DT_FLOAT
    }
  }
  attr {
    key: "shape"
    value {
      shape {
        dim {
          size: 1280
        }
      }
    }
  }
  attr {
    key: "shared_name"
    value {
      s: ""
    }
  }
}
node {
  name: "MobilenetV2/Conv_1/BatchNorm/moving_variance/Assign"
  op: "Assign"
  input: "MobilenetV2/Conv_1/BatchNorm/moving_variance"
  input: "MobilenetV2/Conv_1/BatchNorm/moving_variance/Initializer/ones"
  attr {
    key: "T"
    value {
      type: DT_FLOAT
    }
  }
  attr {
    key: "_class"
    value {
      list {
        s: "loc:@MobilenetV2/Conv_1/BatchNorm/moving_variance"
      }
    }
  }
  attr {
    key: "use_locking"
    value {
      b: true
    }
  }
  attr {
    key: "validate_shape"
    value {
      b: true
    }
  }
}
node {
  name: "MobilenetV2/Conv_1/BatchNorm/moving_variance/read"
  op: "Identity"
  input: "MobilenetV2/Conv_1/BatchNorm/moving_variance"
  attr {
    key: "T"
    value {
      type: DT_FLOAT
    }
  }
  attr {
    key: "_class"
    value {
      list {
        s: "loc:@MobilenetV2/Conv_1/BatchNorm/moving_variance"
      }
    }
  }
}
node {
  name: "MobilenetV2/Conv_1/BatchNorm/FusedBatchNorm"
  op: "FusedBatchNorm"
  input: "MobilenetV2/Conv_1/Conv2D"
  input: "MobilenetV2/Conv_1/BatchNorm/gamma/read"
  input: "MobilenetV2/Conv_1/BatchNorm/beta/read"
  input: "MobilenetV2/Conv_1/BatchNorm/moving_mean/read"
  input: "MobilenetV2/Conv_1/BatchNorm/moving_variance/read"
  attr {
    key: "T"
    value {
      type: DT_FLOAT
    }
  }
  attr {
    key: "data_format"
    value {
      s: "NHWC"
    }
  }
  attr {
    key: "epsilon"
    value {
      f: 0.0010000000475
    }
  }
  attr {
    key: "is_training"
    value {
      b: false
    }
  }
}
node {
  name: "MobilenetV2/Conv_1/BatchNorm/Const"
  op: "Const"
  attr {
    key: "dtype"
    value {
      type: DT_FLOAT
    }
  }
  attr {
    key: "value"
    value {
      tensor {
        dtype: DT_FLOAT
        tensor_shape {
        }
        float_val: 0.999000012875
      }
    }
  }
}
node {
  name: "MobilenetV2/Conv_1/Relu6"
  op: "Relu6"
  input: "MobilenetV2/Conv_1/BatchNorm/FusedBatchNorm"
  attr {
    key: "T"
    value {
      type: DT_FLOAT
    }
  }
}
node {
  name: "MobilenetV2/embedding"
  op: "Identity"
  input: "MobilenetV2/Conv_1/Relu6"
  attr {
    key: "T"
    value {
      type: DT_FLOAT
    }
  }
}
node {
  name: "MobilenetV2/Logits/AvgPool"
  op: "AvgPool"
  input: "MobilenetV2/embedding"
  attr {
    key: "T"
    value {
      type: DT_FLOAT
    }
  }
  attr {
    key: "data_format"
    value {
      s: "NHWC"
    }
  }
  attr {
    key: "ksize"
    value {
      list {
        i: 1
        i: 7
        i: 7
        i: 1
      }
    }
  }
  attr {
    key: "padding"
    value {
      s: "VALID"
    }
  }
  attr {
    key: "strides"
    value {
      list {
        i: 1
        i: 1
        i: 1
        i: 1
      }
    }
  }
}
node {
  name: "MobilenetV2/Logits/Dropout/Identity"
  op: "Identity"
  input: "MobilenetV2/Logits/AvgPool"
  attr {
    key: "T"
    value {
      type: DT_FLOAT
    }
  }
}
node {
  name: "MobilenetV2/Logits/Conv2d_1c_1x1/weights/Initializer/random_uniform/shape"
  op: "Const"
  attr {
    key: "_class"
    value {
      list {
        s: "loc:@MobilenetV2/Logits/Conv2d_1c_1x1/weights"
      }
    }
  }
  attr {
    key: "dtype"
    value {
      type: DT_INT32
    }
  }
  attr {
    key: "value"
    value {
      tensor {
        dtype: DT_INT32
        tensor_shape {
          dim {
            size: 4
          }
        }
        tensor_content: "\001\000\000\000\001\000\000\000\000\005\000\000\351\003\000\000"
      }
    }
  }
}
node {
  name: "MobilenetV2/Logits/Conv2d_1c_1x1/weights/Initializer/random_uniform/min"
  op: "Const"
  attr {
    key: "_class"
    value {
      list {
        s: "loc:@MobilenetV2/Logits/Conv2d_1c_1x1/weights"
      }
    }
  }
  attr {
    key: "dtype"
    value {
      type: DT_FLOAT
    }
  }
  attr {
    key: "value"
    value {
      tensor {
        dtype: DT_FLOAT
        tensor_shape {
        }
        float_val: -0.0512876696885
      }
    }
  }
}
node {
  name: "MobilenetV2/Logits/Conv2d_1c_1x1/weights/Initializer/random_uniform/max"
  op: "Const"
  attr {
    key: "_class"
    value {
      list {
        s: "loc:@MobilenetV2/Logits/Conv2d_1c_1x1/weights"
      }
    }
  }
  attr {
    key: "dtype"
    value {
      type: DT_FLOAT
    }
  }
  attr {
    key: "value"
    value {
      tensor {
        dtype: DT_FLOAT
        tensor_shape {
        }
        float_val: 0.0512876696885
      }
    }
  }
}
node {
  name: "MobilenetV2/Logits/Conv2d_1c_1x1/weights/Initializer/random_uniform/RandomUniform"
  op: "RandomUniform"
  input: "MobilenetV2/Logits/Conv2d_1c_1x1/weights/Initializer/random_uniform/shape"
  attr {
    key: "T"
    value {
      type: DT_INT32
    }
  }
  attr {
    key: "_class"
    value {
      list {
        s: "loc:@MobilenetV2/Logits/Conv2d_1c_1x1/weights"
      }
    }
  }
  attr {
    key: "dtype"
    value {
      type: DT_FLOAT
    }
  }
  attr {
    key: "seed"
    value {
      i: 0
    }
  }
  attr {
    key: "seed2"
    value {
      i: 0
    }
  }
}
node {
  name: "MobilenetV2/Logits/Conv2d_1c_1x1/weights/Initializer/random_uniform/sub"
  op: "Sub"
  input: "MobilenetV2/Logits/Conv2d_1c_1x1/weights/Initializer/random_uniform/max"
  input: "MobilenetV2/Logits/Conv2d_1c_1x1/weights/Initializer/random_uniform/min"
  attr {
    key: "T"
    value {
      type: DT_FLOAT
    }
  }
  attr {
    key: "_class"
    value {
      list {
        s: "loc:@MobilenetV2/Logits/Conv2d_1c_1x1/weights"
      }
    }
  }
}
node {
  name: "MobilenetV2/Logits/Conv2d_1c_1x1/weights/Initializer/random_uniform/mul"
  op: "Mul"
  input: "MobilenetV2/Logits/Conv2d_1c_1x1/weights/Initializer/random_uniform/RandomUniform"
  input: "MobilenetV2/Logits/Conv2d_1c_1x1/weights/Initializer/random_uniform/sub"
  attr {
    key: "T"
    value {
      type: DT_FLOAT
    }
  }
  attr {
    key: "_class"
    value {
      list {
        s: "loc:@MobilenetV2/Logits/Conv2d_1c_1x1/weights"
      }
    }
  }
}
node {
  name: "MobilenetV2/Logits/Conv2d_1c_1x1/weights/Initializer/random_uniform"
  op: "Add"
  input: "MobilenetV2/Logits/Conv2d_1c_1x1/weights/Initializer/random_uniform/mul"
  input: "MobilenetV2/Logits/Conv2d_1c_1x1/weights/Initializer/random_uniform/min"
  attr {
    key: "T"
    value {
      type: DT_FLOAT
    }
  }
  attr {
    key: "_class"
    value {
      list {
        s: "loc:@MobilenetV2/Logits/Conv2d_1c_1x1/weights"
      }
    }
  }
}
node {
  name: "MobilenetV2/Logits/Conv2d_1c_1x1/weights"
  op: "VariableV2"
  attr {
    key: "_class"
    value {
      list {
        s: "loc:@MobilenetV2/Logits/Conv2d_1c_1x1/weights"
      }
    }
  }
  attr {
    key: "container"
    value {
      s: ""
    }
  }
  attr {
    key: "dtype"
    value {
      type: DT_FLOAT
    }
  }
  attr {
    key: "shape"
    value {
      shape {
        dim {
          size: 1
        }
        dim {
          size: 1
        }
        dim {
          size: 1280
        }
        dim {
          size: 1001
        }
      }
    }
  }
  attr {
    key: "shared_name"
    value {
      s: ""
    }
  }
}
node {
  name: "MobilenetV2/Logits/Conv2d_1c_1x1/weights/Assign"
  op: "Assign"
  input: "MobilenetV2/Logits/Conv2d_1c_1x1/weights"
  input: "MobilenetV2/Logits/Conv2d_1c_1x1/weights/Initializer/random_uniform"
  attr {
    key: "T"
    value {
      type: DT_FLOAT
    }
  }
  attr {
    key: "_class"
    value {
      list {
        s: "loc:@MobilenetV2/Logits/Conv2d_1c_1x1/weights"
      }
    }
  }
  attr {
    key: "use_locking"
    value {
      b: true
    }
  }
  attr {
    key: "validate_shape"
    value {
      b: true
    }
  }
}
node {
  name: "MobilenetV2/Logits/Conv2d_1c_1x1/weights/read"
  op: "Identity"
  input: "MobilenetV2/Logits/Conv2d_1c_1x1/weights"
  attr {
    key: "T"
    value {
      type: DT_FLOAT
    }
  }
  attr {
    key: "_class"
    value {
      list {
        s: "loc:@MobilenetV2/Logits/Conv2d_1c_1x1/weights"
      }
    }
  }
}
node {
  name: "MobilenetV2/Logits/Conv2d_1c_1x1/biases/Initializer/zeros/shape_as_tensor"
  op: "Const"
  attr {
    key: "_class"
    value {
      list {
        s: "loc:@MobilenetV2/Logits/Conv2d_1c_1x1/biases"
      }
    }
  }
  attr {
    key: "dtype"
    value {
      type: DT_INT32
    }
  }
  attr {
    key: "value"
    value {
      tensor {
        dtype: DT_INT32
        tensor_shape {
          dim {
            size: 1
          }
        }
        int_val: 1001
      }
    }
  }
}
node {
  name: "MobilenetV2/Logits/Conv2d_1c_1x1/biases/Initializer/zeros/Const"
  op: "Const"
  attr {
    key: "_class"
    value {
      list {
        s: "loc:@MobilenetV2/Logits/Conv2d_1c_1x1/biases"
      }
    }
  }
  attr {
    key: "dtype"
    value {
      type: DT_FLOAT
    }
  }
  attr {
    key: "value"
    value {
      tensor {
        dtype: DT_FLOAT
        tensor_shape {
        }
        float_val: 0.0
      }
    }
  }
}
node {
  name: "MobilenetV2/Logits/Conv2d_1c_1x1/biases/Initializer/zeros"
  op: "Fill"
  input: "MobilenetV2/Logits/Conv2d_1c_1x1/biases/Initializer/zeros/shape_as_tensor"
  input: "MobilenetV2/Logits/Conv2d_1c_1x1/biases/Initializer/zeros/Const"
  attr {
    key: "T"
    value {
      type: DT_FLOAT
    }
  }
  attr {
    key: "_class"
    value {
      list {
        s: "loc:@MobilenetV2/Logits/Conv2d_1c_1x1/biases"
      }
    }
  }
  attr {
    key: "index_type"
    value {
      type: DT_INT32
    }
  }
}
node {
  name: "MobilenetV2/Logits/Conv2d_1c_1x1/biases"
  op: "VariableV2"
  attr {
    key: "_class"
    value {
      list {
        s: "loc:@MobilenetV2/Logits/Conv2d_1c_1x1/biases"
      }
    }
  }
  attr {
    key: "container"
    value {
      s: ""
    }
  }
  attr {
    key: "dtype"
    value {
      type: DT_FLOAT
    }
  }
  attr {
    key: "shape"
    value {
      shape {
        dim {
          size: 1001
        }
      }
    }
  }
  attr {
    key: "shared_name"
    value {
      s: ""
    }
  }
}
node {
  name: "MobilenetV2/Logits/Conv2d_1c_1x1/biases/Assign"
  op: "Assign"
  input: "MobilenetV2/Logits/Conv2d_1c_1x1/biases"
  input: "MobilenetV2/Logits/Conv2d_1c_1x1/biases/Initializer/zeros"
  attr {
    key: "T"
    value {
      type: DT_FLOAT
    }
  }
  attr {
    key: "_class"
    value {
      list {
        s: "loc:@MobilenetV2/Logits/Conv2d_1c_1x1/biases"
      }
    }
  }
  attr {
    key: "use_locking"
    value {
      b: true
    }
  }
  attr {
    key: "validate_shape"
    value {
      b: true
    }
  }
}
node {
  name: "MobilenetV2/Logits/Conv2d_1c_1x1/biases/read"
  op: "Identity"
  input: "MobilenetV2/Logits/Conv2d_1c_1x1/biases"
  attr {
    key: "T"
    value {
      type: DT_FLOAT
    }
  }
  attr {
    key: "_class"
    value {
      list {
        s: "loc:@MobilenetV2/Logits/Conv2d_1c_1x1/biases"
      }
    }
  }
}
node {
  name: "MobilenetV2/Logits/Conv2d_1c_1x1/dilation_rate"
  op: "Const"
  attr {
    key: "dtype"
    value {
      type: DT_INT32
    }
  }
  attr {
    key: "value"
    value {
      tensor {
        dtype: DT_INT32
        tensor_shape {
          dim {
            size: 2
          }
        }
        tensor_content: "\001\000\000\000\001\000\000\000"
      }
    }
  }
}
node {
  name: "MobilenetV2/Logits/Conv2d_1c_1x1/Conv2D"
  op: "Conv2D"
  input: "MobilenetV2/Logits/Dropout/Identity"
  input: "MobilenetV2/Logits/Conv2d_1c_1x1/weights/read"
  attr {
    key: "T"
    value {
      type: DT_FLOAT
    }
  }
  attr {
    key: "data_format"
    value {
      s: "NHWC"
    }
  }
  attr {
    key: "dilations"
    value {
      list {
        i: 1
        i: 1
        i: 1
        i: 1
      }
    }
  }
  attr {
    key: "padding"
    value {
      s: "SAME"
    }
  }
  attr {
    key: "strides"
    value {
      list {
        i: 1
        i: 1
        i: 1
        i: 1
      }
    }
  }
  attr {
    key: "use_cudnn_on_gpu"
    value {
      b: true
    }
  }
}
node {
  name: "MobilenetV2/Logits/Conv2d_1c_1x1/BiasAdd"
  op: "BiasAdd"
  input: "MobilenetV2/Logits/Conv2d_1c_1x1/Conv2D"
  input: "MobilenetV2/Logits/Conv2d_1c_1x1/biases/read"
  attr {
    key: "T"
    value {
      type: DT_FLOAT
    }
  }
  attr {
    key: "data_format"
    value {
      s: "NHWC"
    }
  }
}
node {
  name: "MobilenetV2/Logits/Squeeze"
  op: "Squeeze"
  input: "MobilenetV2/Logits/Conv2d_1c_1x1/BiasAdd"
  attr {
    key: "T"
    value {
      type: DT_FLOAT
    }
  }
  attr {
    key: "squeeze_dims"
    value {
      list {
        i: 1
        i: 2
      }
    }
  }
}
node {
  name: "MobilenetV2/Logits/output"
  op: "Identity"
  input: "MobilenetV2/Logits/Squeeze"
  attr {
    key: "T"
    value {
      type: DT_FLOAT
    }
  }
}
node {
  name: "MobilenetV2/Predictions/Reshape/shape"
  op: "Const"
  attr {
    key: "dtype"
    value {
      type: DT_INT32
    }
  }
  attr {
    key: "value"
    value {
      tensor {
        dtype: DT_INT32
        tensor_shape {
          dim {
            size: 2
          }
        }
        tensor_content: "\377\377\377\377\351\003\000\000"
      }
    }
  }
}
node {
  name: "MobilenetV2/Predictions/Reshape"
  op: "Reshape"
  input: "MobilenetV2/Logits/output"
  input: "MobilenetV2/Predictions/Reshape/shape"
  attr {
    key: "T"
    value {
      type: DT_FLOAT
    }
  }
  attr {
    key: "Tshape"
    value {
      type: DT_INT32
    }
  }
}
node {
  name: "MobilenetV2/Predictions/Softmax"
  op: "Softmax"
  input: "MobilenetV2/Predictions/Reshape"
  attr {
    key: "T"
    value {
      type: DT_FLOAT
    }
  }
}
node {
  name: "MobilenetV2/Predictions/Shape"
  op: "Shape"
  input: "MobilenetV2/Logits/output"
  attr {
    key: "T"
    value {
      type: DT_FLOAT
    }
  }
  attr {
    key: "out_type"
    value {
      type: DT_INT32
    }
  }
}
node {
  name: "MobilenetV2/Predictions/Reshape_1"
  op: "Reshape"
  input: "MobilenetV2/Predictions/Softmax"
  input: "MobilenetV2/Predictions/Shape"
  attr {
    key: "T"
    value {
      type: DT_FLOAT
    }
  }
  attr {
    key: "Tshape"
    value {
      type: DT_INT32
    }
  }
}
versions {
  producer: 26
}

